recovery/root/odm/variant/miro/odm/firmware/film_model.tflite (tflite, 6184 bytes, 8 tensors)

fc1/bias f4 [3]
-0.08153284 -0.07647437 0.16936067
00000000: b1fa a6bd 989e 9cbd e26c 2d3e

sequential/relu0/Relu;sequential/bn0/FusedBatchNormV3;ftr0/bias;sequential/ftr0/BiasAdd;sequential/ftr0/Conv2D f4 [6]
-0.12216215 -0.04003709 -0.1284533 0.7339751 0.4439539 0.636171
00000000: 2630 fabd effd 23bd 4389 03be cbe5 3b3f
00000010: ed4d e33e 1adc 223f

sequential/relu2/Relu;sequential/bn2/FusedBatchNormV3;ftr11/bias;sequential/ftr11/BiasAdd;sequential/ftr11/Conv2D f4 [12]
0.54104894 -1.7328774 -3.2787259 -2.8153346 0.32652432 -0.24852033 1.2827697 0.6621392
-8.078487 1.8274451 -3.1881986 -2.6992695
00000000: 2f82 0a3f edce ddbf a5d6 51c0 712e 34c0
00000010: 322e a73e 1d7c 7ebe cc31 a43f f481 293f
00000020: 7c41 01c1 b9e9 e93f 720b 4cc0 d5c0 2cc0

sequential/activation/Relu;sequential/batch_normalization/FusedBatchNormV3;ftr2/bias;sequential/ftr2/BiasAdd;sequential/ftr2/Conv2D f4 [24]
14.966869 15.486672 -8.1834 -4.914382 -6.6938705 14.978458 11.31691 -8.057575
-8.446405 -0.84339714 -9.459633 14.459204 -4.872787 3.55472 -8.086764 15.449781
-4.8774424 -6.8401413 9.169693 -9.012973 15.404488 15.180592 -3.6978188 -6.821803
00000000: 4c78 6f41 69c9 7741 35ef 02c1 9e42 9dc0
00000010: 3034 d6c0 c4a7 6f41 1012 3541 d4eb 00c1
00000020: 7a24 07c1 e0e8 57bf a85a 17c1 e658 6741
00000030: dfed 9bc0 8880 6340 6363 01c1 4e32 7741
00000040: 0214 9cc0 70e2 dac0 10b7 1241 2335 10c1
00000050: c878 7641 b4e3 7241 10a9 6cc0 364c dac0

sequential/fc1/MatMul f4 [3, 24]
-1.5599806 -1.2849884 1.371663 0.9204384 1.134165 -1.4376602 -0.5938999 1.5402702
1.6011171 -0.015888693 1.9925067 -1.1652011 1.1355202 -0.83346623 2.0813162 -0.8868592
0.7767761 1.6565157 -1.1977009 1.8628235 -1.1841916 -1.2427403 1.1336223 0.71554387
-0.3752161 -0.47667474 -0.13614684 0.59310174 0.3001737 -0.2495428 -0.7323609 0.58484393
-0.6240318 1.1027172 -0.8145314 0.2033751 0.5980718 0.084128335 -1.221741 0.026632281
0.5302338 -0.5150793 0.6103271 -0.94762456 0.42988738 -0.40546423 0.84783304 -0.14726242
1.0578443 0.51744175 -2.1133661 -1.7426952 -1.8450174 1.3126829 1.2580949 -1.4931338
-2.0915897 -1.3913014 -1.9068366 0.6018469 -1.6357348 0.76251054 -2.048357 0.7528993
-1.9313598 -2.3802564 0.40067822 -2.0710647 0.93856895 0.6499016 -1.3246424 -2.2589374
00000000: 72ad c7bf 807a a4bf a792 af3f daa1 6b3f
00000010: 522c 913f 4005 b8bf d309 18bf 9327 c53f
00000020: 68f1 cc3f 0129 82bc 760a ff3f 4f25 95bf
00000030: ba58 913f 0b5e 55bf 4934 0540 3409 63bf
00000040: ccda 463f b508 d43f 434e 99bf 0071 ee3f
00000050: 9793 97bf 1d12 9fbf 891a 913f e22d 373f
00000060: 531c c0be b60e f4be 146a 0bbe 84d5 173f
00000070: 5eb0 993e 2688 7fbe 017c 3bbf 55b8 153f
00000080: 8cc0 1fbf d625 8d3f 2185 50bf 9041 503e
00000090: 3c1b 193f 7a4b ac3d 0262 9cbf f12b da3c
000000a0: 67bd 073f 3ddc 03bf 663e 1c3f 8697 72bf
000000b0: 331a dc3e 0299 cfbe 960b 593f f6cb 16be
000000c0: 7167 873f 1077 043f 6441 07c0 a310 dfbf
000000d0: 8829 ecbf fe05 a83f 4109 a13f 021f bfbf
000000e0: 9bdc 05c0 2a16 b2bf 3913 f4bf a312 1a3f
000000f0: c25f d1bf e433 433f 4818 03c0 02be 403f
00000100: cc36 f7bf 1f56 18c0 b225 cd3e 538c 04c0
00000110: 0e46 703f f45f 263f e28d a9bf 6e92 10c0

sequential/ftr0/Conv2D f4 [6, 4, 4, 1]
0.00030244113 0.00044217688 -0.0018867218 -0.001210945 0.0015657996 0.00024223198 0.00072908564 -0.003539496
0.002859933 -0.0007472003 0.0058050025 -0.0014763373 -0.00077052834 0.0057013095 -0.000548232 0.00017888652
-0.005927556 0.00031966396 0.0029232637 0.0018916286 0.0069714393 -0.0037079651 0.0049072127 -0.009182712
-0.009456018 0.012956223 -0.0069039986 -0.0043418533 0.005302076 -0.00076048414 -0.0022529785 0.007071822
0.00577758 0.00031559286 -0.003777018 -0.004229847 0.0015265589 0.0044888183 -0.0026298994 -0.00023257978
8.1916376e-05 -0.0035713126 0.0035524508 1.8905865e-05 -6.908277e-05 -0.0075403587 0.0072116447 0.00056146295
0.0010384099 -0.00801548 0.0025682282 -0.0068550897 0.003332104 -0.00053416396 0.00127586 -0.0024795376
-0.00037159963 0.0017711141 -0.0016547542 0.00393775 -0.005767395 -0.0048063183 -0.0023509753 -0.0005913428
-0.0076665715 0.0031403445 0.0026667453 -0.004394921 -0.002078445 -0.010483843 -0.00091316644 0.0058848765
0.0070772786 0.004914527 -0.0036294484 -0.006738353 -0.007080469 -0.0009744621 0.0039048255 -0.0030357307
-0.0061527607 -0.0039882204 8.4812615e-05 0.0029341113 -0.004330369 0.00294682 0.00046168698 0.0008880357
0.0029274898 -0.003843551 0.0020321724 -0.0021127206 -0.0024861332 0.0072065312 -0.011278143 0.0028804925
00000000: f690 9e39 fad3 e739 e14b f7ba 92b8 9eba
00000010: 843b cd3a a7ff 7d39 1c20 3f3a e4f6 67bb
00000020: b76d 3b3b c3df 43ba e437 be3b a981 c1ba
00000030: 48fd 49ba 0dd2 ba3b 3ab7 0fba 7c93 3b39
00000040: f23b c2bb 9298 a739 3a94 3f3b 86f0 f73a
00000050: ac70 e43b 5501 73bb afcc a03b 1673 16bc
00000060: 6aed 1abc 5746 543c f03a e2bb 1b46 8ebb
00000070: 0abd ad3b 3a5b 47ba b5a6 13bb beba e73b
00000080: db51 bd3b 2876 a539 d987 77bb 879a 8abb
00000090: d116 c83a f016 933b 645a 2cbb a9e0 73b9
000000a0: 85ca ab38 af0c 6abb 3cd0 683b 0998 9e37
000000b0: 88e0 90b8 1d15 f7bb a94f ec3b 242f 133a
000000c0: 411b 883a 5c53 03bc b84f 283b a9a0 e0bb
000000d0: 6e5f 5a3b 2307 0cba c23a a73a bd7f 22bb
000000e0: 42d3 c2b9 ba24 e83a 56e4 d8ba 3e08 813b
000000f0: 6afc bcbb 527e 9dbb d212 1abb 5804 1bba
00000100: dd37 fbbb 3dce 4d3b 90c4 2e3b 4503 90bb
00000110: 8536 08bb 6dc4 2bbc 9061 6fba ecd5 c03b
00000120: 84e8 e73b 0a0a a13b 0adc 6dbb 67cd dcbb
00000130: 4703 e8bb 0b73 7fba 1ae8 7f3b 1cf3 46bb
00000140: 199d c9bb 9eaf 82bb 6ddd b138 384a 403b
00000150: c5e5 8dbb 701f 413b 940e f239 11cb 683a
00000160: 21db 3f3b 16e4 7bbb 322e 053b 9275 0abb
00000170: 65ee 22bb c424 ec3b f6c7 38bc a5c6 3c3b

sequential/ftr11/Conv2D f4 [12, 2, 2, 6]
0.4606128 -0.18179347 0.13145037 0.41912377 0.55951357 -0.014270902 0.25341362 -0.016052129
-0.8312363 -0.6560128 -0.39612323 0.22341399 0.055860102 0.0848277 -0.8260218 -0.14472704
0.3023647 -0.0035821053 -0.74891025 -0.26403812 -0.8097346 0.30636257 -0.6497748 -0.30918056
0.33439478 -0.05507949 -0.316073 1.0254289 0.036558777 0.8022367 -0.3120345 0.38890883
0.2032024 -0.38151023 1.4369106 0.29551268 0.20586982 -0.044808768 -0.18118165 0.07343094
-0.39107275 -0.7860833 -0.360406 0.6370107 -0.0636294 0.44902053 0.20700735 0.12918219
-0.4180309 0.28310734 -0.74129957 -0.25361082 0.14150724 1.0310562 0.61232495 0.4781281
0.14458172 0.23341228 0.19501978 0.51613253 0.42921987 -0.44679576 -0.04500736 0.91571015
-0.715195 -0.22808474 -0.56827855 0.48565942 0.62712324 1.0494859 1.0808314 1.1407442
0.16253485 0.61392045 0.6849059 0.0077200965 0.6685929 -0.19303389 -0.36533892 1.0642254
0.39511982 0.35916856 0.39774457 0.05515186 -1.0543659 0.8756119 0.67495614 0.7240704
1.3171815 0.011399196 0.36479256 0.13302793 -0.3886812 0.21491331 0.4952938 0.9288102
-0.96586937 0.45413125 0.14422636 -0.21821743 0.6168166 0.39615098 -0.07922009 -0.44292286
-0.55849653 0.39945236 -0.01619688 -0.114874646 0.09633064 -0.32763037 0.2874654 -0.9029437
-0.14093897 0.08879308 -0.00065805466 -0.3335943 -0.5155584 0.5923189 -0.5404933 0.11280799
-0.3175814 0.058676343 -0.08054769 -0.59712476 -0.8391147 0.004401969 -0.43725118 -0.098871075
-0.14642343 1.1086442 0.12942693 -0.06813632 -0.90109587 0.02135804 0.28942317 0.19687232
-0.061716318 0.40877607 -0.013213815 0.009327209 -0.09929187 0.18813394 -0.21271814 -0.35470665
-0.64025307 0.2821957 -0.2904138 -0.1768541 0.17401212 -0.49820486 -0.27114233 -0.29781526
-0.5830773 -0.019846829 -0.08622724 -0.40882713 -0.570421 0.42038235 0.2076783 0.26804408
-0.07539227 -0.030559802 -0.6549181 -0.1351088 -0.03367366 -0.15274192 0.24783793 0.014134173
0.6640281 -0.45279607 -0.5348099 0.64110136 0.13426308 -0.32131663 -0.8277037 0.022428928
-0.17404921 0.4208797 0.20972162 0.2611596 0.0012650646 -0.7613128 -0.53264177 -0.6188222
-0.3179342 0.5388413 -0.13654819 -0.09934384 0.08412453 -0.62118304 0.076075934 -0.5848173
-0.07917504 0.4631822 0.2169208 1.1601686 0.6779322 1.0443778 0.041732837 0.43416017
0.5806319 0.79800695 0.64286065 1.0562133 0.20937777 0.3866526 0.37693483 1.4197965
1.0268776 0.38555053 0.026748706 0.39599562 0.29721358 0.9270934 1.0029658 0.83905274
-0.46596023 -0.17770477 -0.023904655 0.06636914 -0.12645929 -0.7364368 -0.08175565 -0.22340117
-0.70675045 -0.46653402 0.20724922 -0.47706652 -0.3814065 0.36547014 -0.27407765 -0.016118968
0.56120867 -0.05861563 -0.43973723 0.09055601 -0.17230958 -0.44983524 -0.47717 0.15078788
-1.1424662 -0.009635089 0.022342505 1.6706593 -0.53967875 -0.18530412 -0.0010766629 -0.7778207
0.60580903 0.17964938 -0.43940824 1.0801251 0.9590017 -0.14027162 -0.07082649 -0.53179204
00000000: 71d5 eb3e 1128 3abe ed9a 063e 6497 d63e
00000010: 483c 0f3f 80d0 69bc 6ebf 813e c17f 83bc
00000020: e7cb 54bf 74f0 27bf aad0 cabe a3c6 643e
00000030: 90cd 643d 25ba ad3d 2a76 53bf 5333 14be
00000040: 8ccf 9a3e c1c1 6abb 95b8 3fbf 0130 87be
00000050: c44a 4fbf 8edb 9c3e a457 26bf ea4c 9ebe
00000060: cb35 ab3e 089b 61bd 52d4 a1be 4141 833f
00000070: a8be 153d 625f 4d3f fcc2 9fbe 0f1f c73e
00000080: 4a14 503e 4f55 c3be b0ec b73f 704d 973e
00000090: 8acf 523e 6689 37bd af87 39be f662 963d
000000a0: b03a c8be c13c 49bf 2387 b8be 2213 233f
000000b0: 2250 82bd 05e6 e53e bcf9 533e 5648 043e
000000c0: 2508 d6be 72f3 903e cfc5 3dbf 47d9 81be
000000d0: 46e7 103e a6f9 833f 54c1 1c3f 35cd f43e
000000e0: 3b0d 143e a103 6f3e 44b3 473e 4321 043f
000000f0: b5c2 db3e 6ac2 e4be a359 38bd fb6b 6a3f
00000100: 0517 37bf 0c8f 69be b47a 11bf 5aa8 f83e
00000110: 268b 203f 8e55 863f af58 8a3f e803 923f
00000120: 896f 263e e429 1d3f fe55 2f3f ddf8 fc3b
00000130: e728 2b3f adaa 45be b40d bbbe 8a38 883f
00000140: 254d ca3e f1e4 b73e 2da5 cb3e ebe6 613d
00000150: 76f5 86bf 1a28 603f edc9 2c3f ae5c 393f
00000160: 6799 a83f b2c3 3a3c 17c6 ba3e 7938 083e
00000170: 3901 c7be 3c12 5c3e 2697 fd3e 81c6 6d3f
00000180: 3743 77bf e483 e83e 13b0 133e 6474 5fbe
00000190: b1e7 1d3f 4dd4 ca3e 243e a2bd c9c6 e2be
000001a0: a1f9 0ebf 0585 cc3e 52af 84bc 6643 ebbd
000001b0: 0049 c53d 2bbf a7be aa2e 933e 5127 67bf
000001c0: 4e52 10be 25d9 b53d 4d81 2cba dfcc aabe
000001d0: a3fb 03bf 36a2 173f c55d 0abf e007 e73d
000001e0: 079a a2be 9b56 703d 30f6 a4bd 2bdd 18bf
000001f0: 39d0 56bf 643e 903b 63df dfbe eb7c cabd
00000200: 06f0 15be 0ee8 8d3f 7e88 043e 0e8b 8bbd
00000210: 38ae 66bf 0ef7 ae3c 462f 943e e698 493e
00000220: 40ca 7cbd 194b d13e c27e 58bc 26d1 183c
00000230: 8959 cbbd 2fa6 403e c9d2 59be 1c9c b5be
00000240: a0e7 23bf f47b 903e 1eb1 94be 3e19 35be
00000250: 3c30 323e b514 ffbe 2bd3 8abe 3e7b 98be
00000260: 8e44 15bf d195 a2bc e897 b0bd ca51 d1be
00000270: 1c07 12bf 5b3c d73e 9fa9 543e 133d 893e
00000280: 4367 9abd 8d58 fabc b6a8 27bf f659 0abe
00000290: 64ed 09bd 6168 1cbe 3ac9 7d3e 0593 673c
000002a0: bffd 293f e3d4 e7be 4de9 08bf 381f 243f
000002b0: 437c 093e 9d83 a4be 64e4 53bf dfbc b73c
000002c0: f539 32be 8b7d d73e 44c1 563e b6b6 853e
000002d0: 86d0 a53a 65e5 42bf 365b 08bf 226b 1ebf
000002e0: 45c8 a2be 81f1 093f 4ad3 0bbe c874 cbbd
000002f0: 7b49 ac3d da05 1fbf b3cd 9b3d 96b6 15bf
00000300: 8626 a2bd 3826 ed3e 7c20 5e3e 6880 943f
00000310: f78c 2d3f 2cae 853f 0df0 2a3d 3e4a de3e
00000320: 4ba4 143f 2f4a 4c3f 8492 243f ff31 873f
00000330: 2067 563e 54f7 c53e 9afd c03e e4bb b53f
00000340: ba70 833f e166 c53e 1a20 db3c f0bf ca3e
00000350: 612c 983e fe55 6d3f 2f61 803f 29cc 563f
00000360: 5792 eebe 3df8 35be b2d3 c3bc 8bec 873d
00000370: 8b7e 01be 1f87 3cbf 826f a7bd 47c3 64be
00000380: 99ed 34bf 8cdd eebe 2439 543e 1042 f4be
00000390: b647 c3be e71e bb3e e853 8cbe ed0b 84bc
000003a0: 5fab 0f3f f116 70bd 3d25 e1be 6e75 b93d
000003b0: ec71 30be ce50 e6be a04f f4be 2368 1a3e
000003c0: 553c 92bf 7edc 1dbc a107 b73c 2ad8 d53f
000003d0: 6328 0abf 5dc0 3dbe d01e 8dba 421f 47bf
000003e0: 4d16 1b3f 02f6 373e 1efa e0be 8a41 8a3f
000003f0: 2381 753f 5da3 0fbe 7b0d 91bd 8623 08bf

sequential/ftr2/Conv2D f4 [24, 1, 1, 12]
-6.6574674 -2.916996 -3.7080932 -0.816405 -5.8520856 -3.8693912 -11.931708 -0.94820637
6.2336984 1.6886195 -0.9279964 -3.830844 -3.8147755 -2.205226 -2.9246535 -0.8775333
-6.016076 -2.8928847 -8.048875 -2.639062 5.5345106 -5.3607297 -0.9638466 -3.6213074
2.4059536 1.9502099 2.0551002 2.702017 2.0615888 4.81147 3.7006369 1.8361485
0.8663147 2.2687871 2.8452382 -0.9756359 1.1617712 1.4147803 2.2478669 1.5595021
0.5508384 3.2905405 2.2459877 1.1810018 -0.6896406 1.8333398 1.7441641 1.2326748
2.1651783 1.3096495 2.2654939 2.7095706 2.6474137 5.0424047 1.6620353 1.0539459
0.93368775 2.8669288 2.6938057 -0.86197615 -5.5771055 -2.7266197 -3.6531644 -0.77059644
-6.731816 -10.39068 -9.525435 -2.8678787 5.92342 0.23478214 -0.995051 -3.314956
-3.1233745 -2.3939934 -2.657618 -0.94418263 -4.513816 -10.605979 -5.375841 -1.6930794
5.127131 -3.80727 -0.9868962 -2.5978239 1.6714729 2.139005 2.342579 2.5726683
2.466549 4.7284527 3.1914756 2.204771 0.14524643 2.628807 2.7881534 -0.09195446
2.4151568 2.348876 1.9798924 2.2568302 1.4956845 4.9611535 4.087318 2.2902427
2.0983298 2.2415824 2.9170754 -1.4550005 -0.63807386 0.8778244 0.97358656 -0.9865396
0.8589387 1.403329 1.1899176 -0.6348079 -6.725277 0.1333649 -0.63733035 2.7123425
2.9002838 2.518156 1.8152739 2.2030554 1.2948099 5.2803454 5.1842976 2.5093822
2.5429711 2.0926697 3.1880324 -1.7043328 -1.3942263 -1.306206 -2.7724047 -1.7529986
-1.3107177 -3.4611075 -7.466075 -7.2671556 3.9289203 -6.3927546 -2.1365278 -0.99729484
2.5876253 1.8273388 2.0615635 1.5656995 1.607121 4.552874 0.07914738 1.4183693
0.26473367 2.1321466 2.0493815 0.83177406 -1.897627 -2.173723 -1.8457186 -0.16938654
-2.3394966 -7.279573 -2.855423 -0.9962865 2.1672556 2.586119 -1.4971883 0.32428768
2.1776576 2.3116753 1.6463122 1.9533684 1.0141538 4.7057433 3.6144464 3.137258
3.0257902 1.9876803 2.6172812 -1.7403927 -3.4738038 -2.0051363 -2.5691948 -0.9062557
-5.1920247 -2.0245566 -7.9965506 -4.0711184 5.099988 -5.1103153 -1.104975 -3.6461558
1.0142777 1.706708 1.925183 1.4567442 1.7388579 3.0318043 0.9000988 1.8526953
-0.2776945 2.011759 1.675336 1.4037515 2.5893555 1.9757283 1.6548959 2.4373422
1.3512123 4.564955 3.0868793 0.99994767 1.9597079 2.036458 2.8833015 -1.6667148
-1.4475857 -0.6543857 -1.5943332 -1.465819 -0.7111752 -7.2209506 -3.4337447 -4.538427
0.6269073 -5.858504 -1.7896549 1.6415716 2.853743 2.570941 1.5974412 2.0970862
1.2112482 5.061911 4.4132576 3.0419118 2.4072986 1.8866628 2.804663 -1.3250879
-2.1639671 -1.6169751 -3.1308417 -1.6938534 -5.141982 -4.859489 -6.2369037 -7.1510596
4.2610598 -5.950007 -1.9984297 -1.0829837 -3.56132 -1.9728969 -2.8519735 -0.9581271
00000000: f909 d5c0 10b0 3ac0 6651 6dc0 ebff 50bf
00000010: 4944 bbc0 1ba4 77c0 47e8 3ec1 a7bd 72bf
00000020: 757a c740 af24 d83f 2c91 6dbf 8c2c 75c0
00000030: 4825 74c0 6c22 0dc0 862d 3bc0 06a6 60bf
00000040: b283 c0c0 0625 39c0 31c8 00c1 64e6 28c0
00000050: b61a b140 198b abc0 a7be 76bf 80c3 67c0
00000060: 25fb 1940 7aa0 f93f c386 0340 d9ed 2c40
00000070: 12f1 0340 90f7 9940 3cd7 6c40 ea06 eb3f
00000080: cdc6 5d3f cf33 1140 6218 3640 46c3 79bf
00000090: ebb4 943f 8517 b53f 0ddd 0f40 c49d c73f
000000a0: bf03 0d3f 3798 5240 43be 0f40 112b 973f
000000b0: 498c 30bf e1aa ea3f c540 df3f 4ac8 9d3f
000000c0: 4892 0a40 98a2 a73f dafd 1040 9b69 2d40
000000d0: 3a6f 2940 615b a140 93bd d43f b3e7 863f
000000e0: 2906 6f3f c37b 3740 5067 2c40 78aa 5cbf
000000f0: a677 b2c0 f080 2ec0 72cd 69c0 cf45 45bf
00000100: 096b d7c0 3a40 26c1 2f68 18c1 538b 37c0
00000110: a88c bd40 bb6a 703e aabb 7ebf 3d28 54c0
00000120: 5ee5 47c0 3037 19c0 6a16 2ac0 f4b5 71bf
00000130: 2e71 90c0 17b2 29c1 e406 acc0 d3b6 d8bf
00000140: 7511 a440 50aa 73c0 3ba5 7cbf bf42 26c0
00000150: d3f2 d53f 75e5 0840 d0ec 1540 99a6 2440
00000160: f0db 1d40 7c4f 9740 2341 4c40 f81a 0d40
00000170: 7bbb 143e 603e 2840 1b71 3240 9f52 bcbd
00000180: ee91 1a40 fc53 1640 1d6d fd3f e86f 1040
00000190: 9772 bf3f c5c1 9e40 4fcb 8240 5693 1240
000001a0: 094b 0640 1676 0f40 5db1 3a40 753d babf
000001b0: cf58 23bf 1ab9 603f f83c 793f dc8d 7cbf
000001c0: 68e3 5b3f 49a0 b33f 384f 983f c582 22bf
000001d0: 7835 d7c0 cf90 083e 1528 23bf 0597 2d40
000001e0: 409e 3940 7829 2140 e55a e83f dcfe 0c40
000001f0: 55bc a53f 97f8 a840 c4e5 a540 b899 2040
00000200: 0ac0 2240 4dee 0540 b908 4c40 9427 dabf
00000210: 0276 b2bf c231 a7bf 146f 31c0 4262 e0bf
00000220: 99c5 a7bf c982 5dc0 16ea eec0 8a8c e8c0
00000230: 6e73 7b40 7291 ccc0 dfbc 08c0 b74e 7fbf
00000240: a79b 2540 3de6 e93f a8f0 0340 d768 c83f
00000250: 24b6 cd3f 25b1 9140 0618 a23d 208d b53f
00000260: 2c8b 873e 1775 0840 1129 0340 25ef 543f
00000270: 71e5 f2bf 471e 0bc0 8240 ecbf aa73 2dbe
00000280: 50ba 15c0 43f2 e8c0 40bf 36c0 a20c 7fbf
00000290: 51b4 0a40 f982 2540 dea3 bfbf 0909 a63e
000002a0: be5e 0b40 7df2 1340 5cba d23f fa07 fa3f
000002b0: cbcf 813f 7395 9640 1753 6740 d6c8 4840
000002c0: 8ca6 4140 4f6c fe3f 8981 2740 30c5 debf
000002d0: cd52 5ec0 2754 00c0 b06d 24c0 6000 68bf
000002e0: 1125 a6c0 5692 01c0 bee3 ffc0 9a46 82c0
000002f0: 1a33 a340 b487 a3c0 d26f 8dbf 9e5a 69c0
00000300: dad3 813f 6875 da3f 666c f63f 9876 ba3f
00000310: e592 de3f 1509 4240 e06c 663f 1f25 ed3f
00000320: f92d 8ebe a9c0 0040 6971 d63f 21ae b33f
00000330: 00b8 2540 aae4 fc3f a1d3 d33f 6afd 1b40
00000340: 86f4 ac3f 1d14 9240 6e8f 4540 92fc 7f3f
00000350: b5d7 fa3f 5455 0240 0388 3840 e956 d5bf
00000360: 7d4a b9bf d285 27bf 1c13 ccbf f59f bbbf
00000370: 940f 36bf 0712 e7c0 79c2 5bc0 cb3a 91c0
00000380: ff7c 203f dd78 bbc0 6913 e5bf 051f d23f
00000390: baa3 3640 4c8a 2440 f478 cc3f a936 0640
000003a0: 2e0a 9b3f 2dfb a140 6839 8d40 afae 4240
000003b0: 2e11 1a40 2b7e f13f 997f 3340 7b9c a9bf
000003c0: 707e 0ac0 0af9 cebf b65f 48c0 30d0 d8bf
000003d0: 1e8b a4c0 ef80 9bc0 b794 c7c0 7bd5 e4c0
000003e0: 9a5a 8840 7566 bec0 8bcc ffbf 369f 8abf
000003f0: abec 63c0 e387 fcbf bc86 36c0 d147 75bf
