recovery/root/odm/variant/miro/odm/firmware/glove_model.tflite (tflite, 7340 bytes, 13 tensors)

fc1/bias f4 [2]
00000000: d295 5b3e 5b95 5bbe
0.2144387 -0.21443693

sequential/relu0/Relu;sequential/bn0/FusedBatchNormV3;ftr0/bias;sequential/ftr0/BiasAdd;sequential/ftr1/separable_conv2d/depthwise;sequential/ftr0/separable_conv2d f4 [8]
00000000: f2a0 dcbc 8a0b 40bd e03a b73c 7b61 013f
00000010: 320c e2be 60a7 da3e cc2e e5be 6511 8f3e
-0.026932213 -0.046886005 0.022366941 0.5053937 -0.4414993 0.42705822 -0.44762266 0.27942958

sequential/relu1/Relu;sequential/bn1/FusedBatchNormV3;ftr1/bias;sequential/ftr1/BiasAdd;sequential/ftr2/separable_conv2d;sequential/ftr1/separable_conv2d f4 [16]
00000000: 3024 c13e df71 2cbf c2ab 7dbf 0e30 b33e
00000010: ee11 ac3f 0f86 913f c0f5 083f 3d56 57bf
00000020: 57a3 793f 8095 743f a51d 20c0 4c12 8e3d
00000030: f739 1d3f b403 a5bf 1007 b03f 6eee 5a3f
0.3772292 -0.67361253 -0.99090207 0.349976 1.3442972 1.1369036 0.53499985 -0.84115964
0.9751486 0.9554062 -2.5018094 0.069370836 0.6141657 -1.2891755 1.3752155 0.85520065

sequential/activation/Relu;sequential/bn2/FusedBatchNormV3;ftr2/bias;sequential/ftr2/BiasAdd;sequential/ftr2/separable_conv2d f4 [16]
00000000: f0ed 983d 98de 82c0 6cbd 0c40 4c40 ff3f
00000010: 64d2 26be 7c2a d53f 302c 6bbf 94a6 eb3d
00000020: 9206 9b40 0049 a0bc 7c3c 523e 008d 44c0
00000030: 1fcb 88bf e05e 7040 f0dc ce3e a9dc bebf
0.07467258 -4.089672 2.1990614 1.9941497 -0.16291195 1.665359 -0.918643 0.11506382
4.844552 -0.01956606 0.20530885 -3.071106 -1.0686988 3.7557907 0.40402937 -1.491109

sequential/fc1/MatMul f4 [2, 16]
00000000: 0070 d13f 99ef d43f d2b8 2fc0 840e 4dc0
00000010: 54fa f93f 9c3b 4ac0 8d1b 0cc0 1631 ec3f
00000020: da9b 18c0 24e0 eb3f 6a88 0440 e4cd b9bf
00000030: 7c2d ca3f 0b58 34c0 8326 0b40 24e9 ba3f
00000040: ab07 00c0 fb91 04c0 dfb4 0240 d681 1c40
00000050: ed0f 0ac0 f513 6a40 f380 ee3f b815 febf
00000060: 34e2 5e40 bf03 00c0 ed68 05c0 78a1 333f
00000070: e7bd fbbf f0e3 4b40 0d12 efbf 3604 0bc0
1.6362305 1.6635619 -2.7456555 -3.204011 1.9529519 -3.1598883 -2.1891816 1.845248
-2.3845124 1.8427777 2.070826 -1.4515958 1.5795131 -2.8178737 2.1742256 1.4602399
-2.000468 -2.07141 2.0422895 2.4454246 -2.157222 3.657468 1.8633102 -1.9850378
3.4825563 -2.0002286 -2.0845292 0.70168257 -1.9667329 3.1857872 -1.8677384 -2.172132

sequential/ftr0/separable_conv2d/depthwise1 f4 [1, 3, 3, 1]
00000000: 3241 89bd 3411 113f 36c3 0b3f 6b1f 843e
00000010: 0083 543f b13d 2a3f 6895 2a3e 5923 e43e
00000020: 231d 98bd
-0.06701888 0.56666875 0.54594743 0.2580522 0.8301239 0.66500384 0.16658556 0.44558218
-0.074274324

sequential/ftr0/separable_conv2d f4 [8, 1, 1, 1]
00000000: 921e f03b f0eb 25bc 22d8 e13b 15a7 773b
00000010: c5cf 2bbc f708 02bc ea8a 31bc fa06 4fbc
0.007327863 -0.010127053 0.00689222 0.0037788798 -0.010486548 -0.007936708 -0.010836342 -0.012635941

sequential/ftr1/separable_conv2d/depthwise f4 [8]
00000000: 0000 0000 0000 0000 0000 0000 0000 0000
00000010: 0000 0000 0000 0000 0000 0000 0000 0000
0.0 0.0 0.0 0.0 0.0 0.0 0.0 0.0

sequential/ftr1/separable_conv2d/depthwise1 f4 [1, 3, 3, 8]
00000000: fb05 933e 4152 a2be 8b6b b53d 58e8 61be
00000010: 96c5 db3e 0e4f fcbd e619 b2be edaa 083e
00000020: 2f22 5b3e 5f67 a13d ae78 0dbf 104e 0d3f
00000030: 20ab 353f bd32 30be 9818 adbd 6ed7 133f
00000040: 4534 d13e d809 023e 5365 b53e aa55 5fbe
00000050: 80ca fc3e 1208 bb3c fe16 e43c 259e 5c3e
00000060: bf92 d03e 84c1 e0bd 1148 c9bb c2a1 68be
00000070: eb80 e4be 1f31 52bf 05f7 54bf 7f20 243d
00000080: bf29 0abe 7cf4 b03e e61e 23bf 87bd bdbe
00000090: 5084 fe3e ec3b b7be 7d8d 503e 460c 7d3f
000000a0: 4966 6abe 6f46 103f 134f 33be 0df4 c5be
000000b0: 0790 bc3e 26ab 963d c702 1ebf 115b b23e
000000c0: a5f0 f93d f67d fc3d b02d 70bc 1f7f 143d
000000d0: c91f 89be 0626 edbe 68b7 86be 3789 d1bd
000000e0: 187f fd3d 0d1c 453f e0a7 843e 4854 36ba
000000f0: b0d3 9c3d 9b30 403e 3dba 723d 802c 183f
00000100: 7821 c83e 37f2 2d3e e9f5 ca3c 2f13 533d
00000110: 8e24 e53e 0aa5 bc3d 9c01 abbe 179d 763e
0.287155 -0.3170338 0.08858403 -0.22061288 0.42924184 -0.12319766 -0.34785384 0.13346453
0.21399759 0.078810446 -0.5526227 0.5519724 0.7096424 -0.17206855 -0.084519565 0.57750595
0.4086019 0.12699068 0.35428867 -0.21810022 0.49373245 0.022830997 0.027842995 0.21544702
0.40736958 -0.1097441 -0.006142624 -0.22717956 -0.44629607 -0.821062 -0.8318942 0.040070053
-0.13492487 0.34561527 -0.6371902 -0.3705866 0.4971032 -0.35787904 0.20366473 0.9884685
-0.22890581 0.56357473 -0.17510633 -0.38662758 0.36828634 0.07356863 -0.6172299 0.34835103
0.122041024 0.12328713 -0.01465933 0.036254045 -0.26782063 -0.46318072 -0.26311803 -0.1023125
0.12377757 0.7699593 0.25909328 -0.0006955308 0.07657564 0.18768542 0.059259642 0.594429
0.39088035 0.16986929 0.024775462 0.051531967 0.44754452 0.09211166 -0.33399665 0.24083363

sequential/ftr1/separable_conv2d f4 [16, 1, 1, 8]
00000000: d72f e43e 716b f1be 254f 593f 6113 193f
00000010: 56d3 e4be 7528 ed3e e168 863f 0086 883e
00000020: 769e ca3e c19f 873f 4b87 c93e c828 fcbe
00000030: 274d 2cbf 643a 9ebd e63f 0340 8eae bc3e
00000040: 7407 dc3e d980 86be 4c1d ccbe 93b3 28bf
00000050: fa09 e03e 5000 7e3e 1805 96be a194 6ebe
00000060: acec f4be 047b 6dbf f42a 8d3f ae4e 573e
00000070: f74c 09bf 0236 d83e a4bb 193e a3b5 973e
00000080: 8b46 04c0 7b5d 32be 52b2 a03e b95a d53e
00000090: 91ae d8be cacf 533f e9eb 30be 489d d9bd
000000a0: e52f 703e 24a0 873e 049e 04be 900f 24be
000000b0: 3d05 ccbd 667a 383f ceab ae3e 63d9 97be
000000c0: 9fa6 25bf e62a 0b3d 87e4 27bf 484b e63f
000000d0: 83d4 a73e af9b 94be 0228 2bbf ff54 5fbe
000000e0: cb98 733e da85 62bd 4f7d b03f ac27 59bf
000000f0: 823a 5ebf e8bf 38bf f0c4 9e3e 1cf6 1fbc
00000100: f04c 4f3e 1d76 a53e c95a 783c 1ca9 0f3d
00000110: 6ecd 95bd c9e2 863f 956d 1bbe 8956 07bf
00000120: cdbf 503e 29da ca3e ec00 573e 4784 733f
00000130: ad5b b13e 6c13 343d 6865 0a3e c073 6ebf
00000140: 8ef5 d03e 8d69 03be fc91 85bd c3f4 a7be
00000150: e290 9ebd 9655 133d 22f2 e63e 49e2 8f3e
00000160: 8ba0 91bf 76d2 d2bd 84ef d13e 1fc4 633c
00000170: 3b34 61bf f31e 17be 37f4 8c3f 20d3 923e
00000180: 2243 47bf b643 b8be be0a ad3e ed5b 16bf
00000190: e4cf 7e3f 8032 5d3e bc21 313f 382a dcbe
000001a0: 72cc ba3d 84cf bcbf 3697 14bf 4f89 20bf
000001b0: bdb9 c9bf 48d2 bebd e288 dcba 6dd2 a23f
000001c0: 5757 01bc 89e8 a73f 4ff7 3d3c 2ef0 873e
000001d0: 9213 be3f eb6f 76be 024c 64be 7f73 0ec0
000001e0: 1798 70be e5a7 a1bf 07f8 a1be 0bb6 cdbd
000001f0: 7169 163e 579d 763f 9e9f 35be f20c 003e
0.4456775 -0.47152284 0.8488639 0.59795195 -0.44692487 0.4631993 1.0500757 0.26664734
0.3957402 1.0595628 0.39361033 -0.49249864 -0.67305225 -0.07725981 2.050775 0.36851925
0.42974436 -0.26270178 -0.39866102 -0.6589901 0.43757612 0.24804807 -0.2930076 -0.23298885
-0.47836816 -0.9276583 1.1028733 0.21026108 -0.53633064 0.42228705 0.15012985 0.29630765
-2.0668056 -0.17418472 0.31386048 0.41670778 -0.42320684 0.82738936 -0.17277493 -0.10625702
0.2345577 0.26489365 -0.12950903 -0.16021562 -0.099619366 0.72061765 0.34115452 -0.2965804
-0.6470737 0.033976458 -0.6558308 1.7991724 0.3277932 -0.29025027 -0.6685792 -0.21809767
0.23788755 -0.055303432 1.3788241 -0.8482616 -0.86808026 -0.72167826 0.31009626 -0.009763267
0.20244193 0.32316676 0.015158364 0.035073385 -0.07314573 1.0537959 -0.15178521 -0.5286642
0.20385666 0.39619568 0.20996445 0.95123714 0.34640256 0.043963835 0.13515246 -0.9314537
0.40812343 -0.12833233 -0.06521985 -0.32803926 -0.07742478 0.035970293 0.45106608 0.2810233
-1.1377119 -0.102940485 0.41003048 0.013901739 -0.8797032 -0.147579 1.1012028 0.286767
-0.7783681 -0.3598916 0.33797258 -0.5873402 0.99535966 0.21601295 0.691921 -0.4300096
0.09121026 -1.4750829 -0.5804323 -0.62709516 -1.5759808 -0.09317452 -0.0016825462 1.2720467
-0.007894359 1.3117839 0.0115946075 0.2655043 1.4849722 -0.24066131 -0.2229462 -2.2257993
-0.23495518 -1.2629362 -0.31634542 -0.100444876 0.1468866 0.9633383 -0.1773667 0.12504938

sequential/ftr2/separable_conv2d/depthwise f4 [1, 3, 3, 16]
00000000: 806a 0bbe 8cf7 68be 6d29 b13d 5fdb 0d3f
00000010: 4ebb 82be 77fd aabe 9818 1abe 6924 17bc
00000020: 8b18 adbe ade4 8e3d 9140 04bf d875 06bd
00000030: 1097 063d 2cad 14be a9ac 4e3c aaad 453e
00000040: 7295 34bf 3997 8bbe 0baa 503e 0073 f4be
00000050: fe74 393e 037c 343f 9a5d 04be c5f0 e8bc
00000060: ec37 a7be 2cdc bdbe a87d 12bf 6911 343d
00000070: 9972 e5bb f11a 653e 9fa4 903e 795e 46be
00000080: 2165 a33e bd0e d7be 9964 c03d a960 b6bd
00000090: d510 b63e fa67 8fbd e991 72be 338b b3bd
000000a0: f9bc 63bc 4aa7 053f 63d3 923d f25e 1abe
000000b0: 8f54 193f bd7d 8ebb 0cb7 e83d a1c3 263e
000000c0: ed8e 16bf 6441 b5be d8d9 c13e 2991 e8bd
000000d0: b4a3 123e a7b7 733e a5b2 953e 7990 0f3d
000000e0: b5b0 a03d c341 e5be 6dcf d1be c0e9 4cbd
000000f0: 7896 143f fe52 643d 5ef7 713e c712 843e
00000100: 95c6 29bf b827 c7be 468b a63d 1f24 49bf
00000110: ed2f 743f 3e66 d53e 4670 54be 75f7 12bf
00000120: 4688 86be 177d 0fbf e92e f3bd ce16 a23f
00000130: 5094 e23d 1537 cb3e acf2 8f3e 1771 743e
00000140: 8a47 9d3e 82ee aebe fc23 ddbd 47b6 b9bd
00000150: fcb6 71be 5127 c43e 2194 c83d c7ba f6be
00000160: 4571 67bf eed6 f5be 158b 90be 03b6 29be
00000170: a665 573d fceb a4be 47c1 12bf cd88 afbe
00000180: 7e5f cebe fb91 9abe d6bc 813e 4ef8 d33d
00000190: 00b7 f63e ee20 8c3d b9c7 753e 806e 923e
000001a0: fabc 59be 92cf 62bd 0c39 99be 52f5 c6bd
000001b0: 9fce 4a3e aaa7 763e d429 853e b5f0 0e3f
000001c0: 1b02 f8be ead1 01be e7c0 cc3e d831 efbe
000001d0: 6f3a 963e 6b95 b53e 46ad 02bf 1bcb 833d
000001e0: 774b b6be fd21 a6bd 8e1c b1be bea2 793d
000001f0: 51dd 1f3e 19c0 ab3e 0dff 2f3f e2cd 8d3e
00000200: 93d1 803d 4c4d a6be d537 2b3e fc38 72be
00000210: 9b84 94be 0508 33be d7b6 db3e b807 86be
00000220: 7313 b3be e991 9dbe 50f5 81bf 6bf3 4bbe
00000230: 01bd 1fbe ba8a 2f3d 102a 0fbf 0469 87be
-0.13614845 -0.22750682 0.086504795 0.5541286 -0.25533527 -0.33396503 -0.15048444 -0.009224989
-0.33807787 0.0697721 -0.5166102 -0.03282723 0.03285891 -0.14519185 0.012614408 0.19304529
-0.70540535 -0.2726381 0.20377366 -0.47743988 0.18111035 0.70501727 -0.12926331 -0.02843512
-0.32659853 -0.3708204 -0.57222986 0.043961916 -0.0070021865 0.22373559 0.28250596 -0.19371976
0.31913093 -0.42003432 0.093941875 -0.08905155 0.35559717 -0.07002254 -0.23688473 -0.087667845
-0.013900035 0.5220839 0.07169225 -0.15075281 0.5989465 -0.0043484853 0.113630384 0.16285564
-0.5881184 -0.35401452 0.37861514 -0.11355812 0.1432026 0.23800527 0.29237857 0.03504989
0.07846204 -0.44776735 -0.40978566 -0.05002761 0.580421 0.05574321 0.2362952 0.25795576
-0.6631864 -0.3889749 0.08132033 -0.7857074 0.9538563 0.41679567 -0.20745954 -0.5740884
-0.26275843 -0.56050247 -0.11874182 1.266321 0.110634446 0.39690462 0.2811483 0.23871265
0.30718642 -0.34166342 -0.10797879 -0.0906797 -0.23604959 0.38311246 0.09793878 -0.48189375
-0.9040721 -0.4801554 -0.2823111 -0.16573338 0.052587174 -0.32211292 -0.5732617 -0.34284058
-0.4030723 -0.301895 0.25339383 0.10350095 0.48186493 0.06842218 0.2400197 0.2859993
-0.21263495 -0.055373736 -0.29926336 -0.0971476 0.19805382 0.24087396 0.26008475 0.5583604
-0.48439106 -0.12677732 0.39990923 -0.46717715 0.29341456 0.3546556 -0.51045644 0.06435224
-0.3560445 -0.081119515 -0.34592098 0.06094622 0.1561177 0.33544996 0.6874855 0.2769614
0.06289973 -0.32480848 0.16720517 -0.2365455 -0.2900742 -0.17483528 0.42912933 -0.26177764
-0.34975776 -0.30775383 -1.0152988 -0.19917075 -0.15599443 0.04285691 -0.5592356 -0.26447308

sequential/ftr2/separable_conv2d f4 [16]
00000000: 0000 0000 0000 0000 0000 0000 0000 0000
00000010: 0000 0000 0000 0000 0000 0000 0000 0000
00000020: 0000 0000 0000 0000 0000 0000 0000 0000
00000030: 0000 0000 0000 0000 0000 0000 0000 0000
0.0 0.0 0.0 0.0 0.0 0.0 0.0 0.0
0.0 0.0 0.0 0.0 0.0 0.0 0.0 0.0

sequential/ftr2/separable_conv2d1 f4 [16, 1, 1, 16]
00000000: 84c6 cdbf e70b 003f 46f2 28bf c75f c03f
00000010: 0409 1dc0 2007 2740 fb01 e23e 8d9c 4840
00000020: a721 043f 75e0 3040 b9a0 2040 d0d1 883f
00000030: 169b 02c0 7281 f5bf 9b81 4640 dca1 923f
00000040: 5178 c5bd 3590 83c0 4151 cbbf 432d 13c0
00000050: 87fa e63e 71ea e13f a1da 4040 0ea2 023f
00000060: 8281 fb3f 87d4 91bf b366 633e dc04 1240
00000070: 1b58 13be 5f09 1440 0513 6f40 c4b4 293f
00000080: 4562 9dc0 a218 5ec0 29bb 78c0 ae68 233f
00000090: 7851 c2c0 1136 95bf 3db3 01c0 2f71 47c0
000000a0: 7d05 8040 2277 91be bf24 f1bf e00f d6bf
000000b0: 731f 6c40 fb69 b73f ebdb b1bf f18f 6fbf
000000c0: c3ff 36c0 4c0b 27c0 192f 93c0 3051 b43f
000000d0: 3d5a 87c0 bb76 dfbf 4a66 84c0 f987 7ac0
000000e0: 0490 9040 e3c5 1ebe ec3b 3bc0 2bcd 82c0
000000f0: a155 9140 3a1d 0140 a07e b3be 8455 313f
00000100: 0e3b e5bf bb3d e93f d81e 54bf 3c1e d63f
00000110: 425c 4fc0 6398 5340 52ed 183f 4ed5 3940
00000120: 9706 923e 1741 1c40 26d2 733d 58c1 0240
00000130: b6a7 e5bf 559e 1ac0 e6c0 3940 3457 b33f
00000140: 365c 0141 d548 d5be 0ad1 793f 93e7 fa40
00000150: 4cda 1b3f aa67 acbf ae9b d53f 5ebc 9d3f
00000160: 8adf 81c0 0021 23c0 d548 df3f cce7 6340
00000170: a4d8 a4c0 1144 7740 23f4 0140 db9a d340
00000180: f6cf 8bc0 d064 65c0 2d6f 7cbf 1b37 9340
00000190: b468 513f 2a03 1abf dc34 ed3e 823d 53c0
000001a0: e1e1 a43f 8596 55c0 ec9a 0340 20e4 e0be
000001b0: 4ed3 cc3f 7a05 673e bff3 bf3f 0ebc 30bf
000001c0: ca6c b7bf ca7a 643f e180 02bf 6b9c 8f3f
000001d0: 2236 44c0 512a 2d40 f31e 463f 6215 4740
000001e0: 39b4 b63e db11 bd3f 4410 4e3f 7e3f 933f
000001f0: f197 e3bf 08fd 08c0 cd60 5f40 e2da 9a3f
00000200: bd2f bbbf 6934 47c0 baf0 7ec0 c752 0b41
00000210: 321f 5bbf 28d7 54c0 3a33 63c0 5151 03c0
00000220: 122b b540 4c6a c8c0 0cd1 8fbf dbb0 e6c0
00000230: e119 a13f 1612 5140 57fa f53f f457 a83f
00000240: f2ab e8bf 34ff 4f3f e007 94be 7235 0740
00000250: 4ae0 5cc0 d7e7 7740 c33a a03e 6b68 2e40
00000260: 88e1 2940 6138 7a3f c9b0 8b40 e854 d13f
00000270: 0c89 26c0 0d6b febf 8b71 9f3f 13ce 1140
00000280: 2945 fa3e d439 28c0 be4e 10bf 747b f5be
00000290: 4e09 44c0 0c0f 373f 7570 3a40 d79a 7fbf
000002a0: 7e38 f23f e603 1940 e2b8 2640 a6e9 1940
000002b0: 1af2 07be b0ee 0e3f 487f be40 4c1c 1440
000002c0: 40ec 643f 8f37 733f e535 c33e e9d3 b2c0
000002d0: 07f3 1540 2132 e33f 2762 483f eab7 fcbd
000002e0: 7cf2 1740 064f 4640 212d aac0 7eb9 3ac0
000002f0: c29a 6e3f eaaf 583f cd0e 3bc0 b89b 613f
00000300: 5568 afbf ba38 ae3f 985e 91be 5626 d53f
00000310: be74 22c0 5be9 7340 2f05 153f e779 1440
00000320: e496 7b3f 8630 d73f 7a0b ad3f c9b9 e33f
00000330: fb7b dcbf e539 04c0 9bcb 2340 930f 8e3f
00000340: 93ff a1bf 2bea 13c0 c028 94c0 a9c6 4c3f
00000350: 5b14 cac0 cfca 64bf cd42 773e 1c53 9dbe
00000360: a233 fe40 484d bcc0 195e cfc0 7a59 98c0
00000370: 11bb e23f 8ac3 0540 84b3 bac0 09bb 9c40
00000380: 4fe5 e1bf bffe 96c0 9f14 36c0 ed01 ca3e
00000390: 5ab2 b5bf 8d97 ecbf a079 f5bf db4f c2bf
000003a0: febb af3f 34b1 36be 6577 d13f 1d22 0141
000003b0: bb8f 28c0 a96d 3d3f 586e 0cc0 004a 793f
000003c0: dfc8 dbbf 9758 953f 1079 90bf 2afe 093f
000003d0: 8571 54c0 a139 8c40 ac02 443f 229c 7b3f
000003e0: 9b34 033f 6247 a43f e0d2 453f d4b8 1540
000003f0: fc00 14c0 6155 2ec0 7958 3a40 0ccd 0240
-1.6076207 0.5001816 -0.6599468 1.5029229 -2.4536753 2.6098099 0.44142136 3.134555
0.5161385 2.7636998 2.5098097 1.068903 -2.0407157 -1.9180129 3.1016605 1.1455646
-0.09642089 -4.1113534 -1.5884172 -2.2996376 0.45113012 1.7649671 3.013344 0.51028526
1.9648898 -1.1392983 0.22207145 2.2815466 -0.14389078 2.313072 3.7355359 0.6629145
-4.918246 -3.4702535 -3.8864233 0.63831604 -6.072445 -1.1657125 -2.0265648 -3.1162832
4.00067 -0.28411204 -1.8839339 -1.6723595 3.6894195 1.4329218 -1.3895239 -0.9357901
-2.8593605 -2.6100645 -4.599499 1.4087276 -4.2297654 -1.7458109 -4.1374865 -3.914549
4.51758 -0.15505175 -2.9255323 -4.087545 4.5417027 2.0174088 -0.35057545 0.6927111
-1.7908647 1.8221964 -0.82859564 1.6727977 -3.240006 3.306176 0.5973712 2.903644
0.28520653 2.4414728 0.059526585 2.0430508 -1.7941806 -2.4159138 2.9023986 1.4010987
8.085012 -0.4165713 0.97584593 7.8407683 0.6087997 -1.3469136 1.6688135 1.232311
-4.0585375 -2.5488892 1.7444102 3.5610228 -5.1514454 3.8635294 2.030526 6.6126533
-4.369136 -3.584278 -0.9860714 4.6004767 0.8180039 -0.6016108 0.4632939 -3.3006291
1.2881433 -3.337312 2.0563307 -0.43924046 1.6001985 0.22560683 1.499626 -0.6903695
-1.4330075 0.8924986 -0.50977904 1.121961 -3.065804 2.7057078 0.77390975 3.11068
0.35684374 1.4771074 0.8049357 1.1503751 -1.7780744 -2.1404438 3.4902833 1.2098048
-1.4623944 -3.1125739 -3.9834428 8.707709 -0.85594475 -3.325632 -3.5500016 -2.0518382
5.6615076 -6.2629757 -1.1235671 -7.209089 1.2586023 3.2667289 1.9217023 1.3151841
-1.8177474 0.81248784 -0.28912258 2.112637 -3.4511895 3.8735254 0.31294832 2.7251232
2.6543903 0.9774228 4.36533 1.6354036 -2.6021147 -1.9876419 1.2456526 2.2782028
0.4888089 -2.6285295 -0.5637015 -0.4794575 -3.063068 0.71507335 2.9131138 -0.9984564
1.892349 2.390863 2.6050344 2.4048858 -0.13275948 0.5583296 5.9530373 2.314227
0.8942299 0.9500665 0.38127056 -5.588368 2.3429582 1.7749673 0.7827477 -0.12339766
2.374175 3.0985732 -5.318009 -2.9175715 0.9320489 0.84643424 -2.9227784 0.8812823
-1.3703715 1.3611062 -0.28392482 1.6652324 -2.5383754 3.811118 0.58211035 2.3199403
0.98277116 1.6811683 1.3519127 1.7791072 -1.7225336 -2.0660336 2.559302 1.1098503
-1.265612 -2.3111675 -4.6299744 0.7999063 -6.314985 -0.8937196 0.24146576 -0.3072747
7.943803 -5.8844337 -6.4802365 -4.7609224 1.7713338 2.0900598 -5.8344135 4.8978314
-1.7648104 -4.718597 -2.8450086 0.39454594 -1.4195054 -1.848375 -1.9177742 -1.518062
1.3729246 -0.17841035 1.6364561 8.070828 -2.6337726 0.73995453 -2.1942348 0.9737854
-1.7170676 1.166766 -1.1286945 0.5390345 -3.3194287 4.382035 0.76566577 0.98285115
0.51252145 1.2834284 0.77274895 2.339406 -2.31256 -2.723961 2.91165 2.043765
