recovery/root/odm/variant/miro/odm/firmware/water_check.tflite (tflite, 13360 bytes, 17 tensors)

Const_12 f4 [16]
00000000: f9f6 903f e0c0 023c 96b7 10be 73c4 663f
00000010: a093 17be 314c d23e a1e5 a43e 2f11 19c0
00000020: f7c3 313f 4726 0bbf 18c0 37be 4e10 8a3f
00000030: dc7d 3cbe 36ee 80bf d19f 2fbf 6623 a2be
1.132537 0.007980555 -0.14132532 0.9014351 -0.14802408 0.41073754 0.32206443 -2.3916738
0.69439644 -0.5435528 -0.17944372 1.0786226 -0.18407387 -1.0072696 -0.68603235 -0.31667632

Const_16 f4 [16]
00000000: 61c6 68be 405e 543c 8ecd 973e d033 1dbf
00000010: c3b6 8a3f d6a8 11bf fa57 0c3f f0eb 553e
00000020: 68a9 3a3c e6fb 73bf 96e5 083f 9842 7dbf
00000030: 6ce1 ea3e 754f 5f3e 521a dd3e 37a0 a13e
-0.22731926 0.012961924 0.29649013 -0.61407185 1.0837024 -0.5689825 0.5482174 0.20890784
0.011392929 -0.9530624 0.5347532 -0.9892974 0.45875108 0.21807654 0.43184143 0.31567547

Const_20 f4 [16]
00000000: 03c7 b83e bdf0 b93f bc64 333e 9837 7bbf
00000010: ff59 3d3f 041a a53f cff0 84bf f770 0c3f
00000020: c436 793e c0ca 9f3f 2b99 a9bf f0ca d7bd
00000030: 6a85 053f 6d2b 55bf 9c0d 1440 5e61 5bbf
0.36089334 1.4526592 0.17518896 -0.98131704 0.7396545 1.2898564 -1.0385989 0.5485987
0.24337298 1.2483749 -1.3249868 -0.10536754 0.521567 -0.8326939 2.3133307 -0.85695446

Const_23 f4 [2]
00000000: 4499 cebd e2c3 ff3c
-0.10087827 0.031221334

Const_8 f4 [16]
00000000: 638f ef3d 0671 88bd 5cc8 d1bd 7810 8ebf
00000010: c098 a93e 201d 9dbe ed36 303f 20c6 19bc
00000020: 8067 6aba 0ff5 45bf 49f7 2e3e a31f 493e
00000030: ccfa a6be 5ecf b1be 26d7 e93d 9c30 343e
0.11697271 -0.066621825 -0.10243294 -1.1098776 0.33124352 -0.30686283 0.6883381 -0.009385616
-0.00089418143 -0.77327055 0.1708652 0.19640975 -0.32613218 -0.3472852 0.114179894 0.17596668

MatMul f4 [2, 16]
00000000: dec6 813f 8258 923e ede5 01c0 3d0c fd3e
00000010: bd5c a63f 41bb c53f dd68 5d3e e7af e13f
00000020: fc33 463e fc4f cabe 7a43 ab3d 501d 443f
00000030: f08e 2a3f d2b6 433e d4f3 033f 3bf0 acbe
00000040: 7cc1 a5bf be45 89bd 467e 0c40 05e5 4cbf
00000050: 9e46 acbf efa3 c8bf 92b7 18be c7f1 d9bf
00000060: 1c2d b0be 17a1 a63e e91a 79bd 9dd2 2dbf
00000070: 5142 7ebf 1e26 50be 7dc8 34bf e9d9 ba3e
1.0138814 0.2858315 -2.0296586 0.494234 1.2997051 1.544777 0.21622033 1.7631806
0.19355768 -0.39514148 0.083624795 0.7660723 0.66624355 0.19112709 0.5154393 -0.3377703
-1.2949672 -0.067027554 2.195207 -0.80036956 -1.3459051 -1.5675029 -0.14913777 -1.702691
-0.34409416 0.32544777 -0.06081668 -0.67899495 -0.9931994 -0.2032704 -0.7061842 0.36494377

convolution f4 [1, 3, 3, 1]
00000000: bed6 00bf db50 d33e 95f2 2ebf 9af1 ca3e
00000010: 8f96 5cbf 92e8 883e 7847 18bf 80ed 773e
00000020: f10e 1cbe
-0.5032767 0.41272625 -0.683389 0.39637452 -0.86167234 0.26739937 -0.5948405 0.24211693
-0.15240075

convolution_1 f4 [16, 1, 1, 1]
00000000: 48c8 763f 4bab 823f 9e6e 833f 1cbb 0dbf
00000010: c6b5 7c3f 5c6c 46bf 757a fbbe e839 3abf
00000020: 2996 2ebf 3ea9 48bf 6f92 863f 4f72 8e3f
00000030: 90f6 31bf 4b36 51bf e9e7 2dbf f164 813f
0.96399355 1.0208524 1.0268133 -0.5536363 0.98714864 -0.77509093 -0.49116865 -0.7274461
-0.68197876 -0.78383243 1.0513438 1.1128634 -0.6951685 -0.8172347 -0.6793199 1.010893

depthwise f4 [1, 3, 3, 16]
00000000: e6ff cb3d 46d2 d2be 1900 d8bc 8875 243e
00000010: 1a3c ad3e fd6e 8c3e 6974 b43d c89f 44be
00000020: 8648 1fbe e028 543d 9abc f9bd 50f0 f6be
00000030: 0bc0 cb3e 190d 2c3e 3a81 2b3e e394 93be
00000040: 5aab 0abf 2701 53be a3ae 09be c09c 1e3f
00000050: 518a 8b3d b1fa 08bf d7fe c6bd d66c 77be
00000060: 0cd1 35bd 8a43 d4be 7fcf b83e e4ac 2d3e
00000070: 3ae9 c13d 9947 8b3e 3078 c4be 3aac bcbd
00000080: f36c b63e eec7 0cbf 491c 12bd ef12 933e
00000090: 67e8 7e3b ac79 693e ab05 a3be 6569 07be
000000a0: f125 ebbe 06ed 67bb 6d80 a2be 2a77 bc3d
000000b0: 0ddb 3abc 754a 39bd c5ac 5c3e f994 08bf
000000c0: 4eb2 9a3e 8c93 41bd d40f d0be da2e b53e
000000d0: b916 863d 088b 07bd 34b1 32bd e2d7 ef3d
000000e0: 8b32 f43c 53f3 d0bd 5b2c 0a3f 9b53 51be
000000f0: 2581 1dbd f2b7 fdbe 26d7 00bf 91dd 6d3c
00000100: 09df e13d 245c 853e 665a 19bf 4143 cb3e
00000110: b444 923e 3506 01bf c077 27bf e7ca 063f
00000120: a2a0 ba3d e04e 083f 9fd0 30be 4219 b93e
00000130: b134 ac3d 0a0f 02bf 66d3 efbd e000 e93b
00000140: 4f4a 0dbe dd58 d5be 1b51 31be f5fb 593e
00000150: 80b2 35bc 5806 41be 2818 cbbe 54ae 493e
00000160: 7eb4 ad3d 12b7 c13e baf1 d7be d79f c93c
00000170: 98e5 67be e0d6 cbbb 6278 743e 2d2e 6abd
00000180: 308b ca3c c087 b3bd 1d60 9f3d 56e5 503d
00000190: 7c64 013e 7921 7fbe 25e0 21be 72e7 9cbe
000001a0: adc2 3cbe 4201 9fbe b118 cc3e 7b4d 013f
000001b0: 4ff6 303e 0e64 aabe b38a 2dbf cfc5 81be
000001c0: a992 343e e55f 0fbe a7b9 86be e57b a03d
000001d0: 08b9 5f3e a670 16be c62f 1bbc 8d84 283d
000001e0: ef5e 10be c4e6 e23d 1128 9e3d 005c 463e
000001f0: 7df6 5e3e 9bbd 2dbe eff7 f2bd 77cd a0bd
00000200: 9c5e 29bd 729a 7abe d1a9 213e 22ce 823e
00000210: fc42 223f 62bd 563e 04a9 90be 9204 b9be
00000220: 5f38 6a3e d568 c3bd 84df b23d 3d60 ebbe
00000230: 1be6 023d 0e74 553e 15ae 873e 6338 fd3e
0.09960918 -0.4117605 -0.026367234 0.1606046 0.33834916 0.27428427 0.08811266 -0.19201577
-0.15555009 0.051796794 -0.12194176 -0.4823022 0.39794955 0.16801871 0.16748515 -0.2882453
-0.5416771 -0.20605908 -0.13445525 0.6195793 0.06813491 -0.53507525 -0.097165756 -0.24162611
-0.044388816 -0.41457778 0.36095807 0.16960484 0.094683126 0.27203062 -0.38372946 -0.09212537
0.35629997 -0.5499257 -0.035671506 0.28725383 0.0038895847 0.2280032 -0.31840262 -0.13223799
-0.45927384 -0.003538908 -0.31738606 0.09202416 -0.011404765 -0.045237023 0.21550281 -0.53352314
0.3021416 -0.047259852 -0.40637076 0.35387307 0.06547303 -0.033091575 -0.043626025 0.11711098
0.029809257 -0.102026604 0.5397393 -0.20442049 -0.03845324 -0.49554402 -0.5032829 0.014518158
0.11028869 0.2604686 -0.5990356 0.39699748 0.2856804 -0.50400096 -0.654171 0.52653354
0.091126695 0.53245354 -0.17267083 0.36152083 0.084084876 -0.508042 -0.11710243 0.0071107
-0.13797878 -0.4166936 -0.17316096 0.2128752 -0.011089921 -0.18850076 -0.39666867 0.19695407
0.08481692 0.37834984 -0.4217661 0.02461235 -0.22646177 -0.0062206835 0.23874047 -0.057172943
0.024724573 -0.08766127 0.07782004 0.05099996 0.12635988 -0.24915113 -0.1580816 -0.3064533
-0.18433638 -0.31055647 0.39862588 0.5050885 0.1728146 -0.3327946 -0.67789763 -0.25346228
0.17634071 -0.14001425 -0.26313516 0.07836131 0.21847928 -0.1469141 -0.009471839 0.041142035
-0.14098714 0.11079171 0.07722486 0.19371033 0.21773715 -0.1696686 -0.11863696 -0.07851689
-0.041349992 -0.24472979 0.15787436 0.25547892 0.6338346 0.20970681 -0.2825395 -0.361363
0.22873066 -0.095414795 0.087340385 -0.4597186 0.031957727 0.20845053 0.26500002 0.49457082

convolution_2 f4 [16, 1, 1, 16]
00000000: aaf7 e3bd 0b8b 0c3d 7d2e 5f3f 99e8 393f
00000010: 68bc dc3d d096 303f 966b 833f 5093 0a3f
00000020: 80ca 95bd bdb9 293f dc33 5ebc cfec 15be
00000030: de90 143f b99b 59bf ecd6 e93e fa3a 253e
00000040: eff1 45be 0c42 423e 6e96 423f e30d 69be
00000050: e475 1fbf 0847 153f 28e7 15bf 1a9d eb3d
00000060: 5153 8b3c e731 4c3e a4f4 8cbe 635e b1be
00000070: b557 49be 85e4 b53e 4b9a 03bf 6e44 173f
00000080: 1e0f 02be d9e7 74be f62f 93bd c679 b63d
00000090: 7b48 ce3e 039e 07be 5f22 033f 6c67 893c
000000a0: 5c14 ecbc d237 a4be 3fdc 473e 0563 163e
000000b0: 896f 9b3e ab3d f0be 318a 1dbe 78ec 1d3e
000000c0: 538b 32bd f6db 0c3f d1b0 083f b5e5 55be
000000d0: 3092 27bf 36d1 e63d 48d5 f13d 6625 bc3d
000000e0: 20d8 b13e 097a 563e 3479 333d b768 f4be
000000f0: 180d 583e 11e2 dc3e df48 29be a668 29be
00000100: b544 99be d658 333e 04f6 fc3e 132a 3cbf
00000110: ae0c 2a3f 02bb 863c 497f b23e 1cf2 f4be
00000120: 9ac6 713e b9a4 d13e 8921 893e 3dea 64bf
00000130: c49f a03e a9f5 0cbf 554a 753e 1528 323f
00000140: 03b8 16bf e110 98bd 8bbf 80be 3612 95bd
00000150: 34c5 b9be 4b17 ea3c 5fbe 50be 6918 a53d
00000160: 5f19 193f 9c09 ffbe 41fc 1fbf 4126 cdbe
00000170: d74b 973e 4ded 9b3e e2ff 073f 196b 073f
00000180: bf55 213f e249 583f ff13 cbbe 85f1 ff3e
00000190: b3c0 ae3d 012b 9a3e 022e 603f a267 ea3d
000001a0: 20ef 0d3d 8f1a 453f 912b 603f 116e 2ebf
000001b0: d6e1 54bd 295c 6e3f a2e3 9ebf 4cf7 f2bd
000001c0: fc93 f43e 94cd be3e 46c9 0cbe 1ece a5bf
000001d0: 8eb6 bc3e de08 3c3f 8a07 83bf 0926 7d3f
000001e0: f157 c73d dcd6 25bf 1b61 acbe 2cab 32bd
000001f0: 50e3 4d3e 4fff ea3e 8585 babe fb70 5fbe
00000200: 8599 5abe c3dd a63e 573b ed3e e6d6 013f
00000210: 7f48 a73d a64d 4d3e d570 873e f00f 7a3e
00000220: 7313 0f3e 1dd7 623e 9367 f6be 413e 06be
00000230: 408c 38be 25ac bb3d 86d9 0b3f 7657 f63d
00000240: 7acc 993e 3483 353e 14ad 82bd 8bf4 e03e
00000250: 0ad3 163d 25de ecbc 1a0e 613d a060 14be
00000260: 052b a7be 930d 373d 7bb0 0dbd c70f 993e
00000270: 20f1 52bd 274c 37be 1527 4b3c 4f68 633e
00000280: 28a6 aabe 23da 41bf 7937 043d f262 febe
00000290: 5a0d eb3e 5a22 44bf 8b6c cf3e fcc9 5ebd
000002a0: 296e 74bf a1ce adbe 16df 523f f0c7 133f
000002b0: 73e7 cd3d 9220 f1be 679e 853f 7dc0 013f
000002c0: 2c50 e83d 0fa4 bc3e a4a2 133f 1ee1 27be
000002d0: b647 833a 6d3c 47bf 9acc 443f 66af 47bd
000002e0: 23c9 963e 3b4a a2be ea1a 163e a92c 0d3f
000002f0: e3a5 203f e706 153e e924 053f 3ece d83e
00000300: a8e4 ddbd b61e 653e 04fb 8d3c b343 f53e
00000310: 4bea 1dbe 65e5 88bd 5dcc 2dbe 6001 093d
00000320: e51a 853e 3dd1 12bf 54e0 513f 7336 073f
00000330: 5b03 a43d 0727 0fbf 47ca 8d3f c134 2a3d
00000340: f2f6 d6be 5ad5 a7be d7cd 13bf 0d2a 20be
00000350: dd1e a4be 2f9b e2bd 8ecb 1fbf b3ed e9bd
00000360: 2fd3 b7be a699 14bf fea0 de3e e024 8b3e
00000370: edb5 acbe b624 003e 75d1 f73e 0084 11bf
00000380: f3ae 803e 4fc7 27bf 02a2 e43e 3c50 fc3e
00000390: 06aa 74bc ddd9 d93e a481 f8bd 94ee 463e
000003a0: 0e1e 4bbe add4 a53e 5652 82bd 421f 473d
000003b0: d6d6 cc3e 759b bfbc a876 a2be b3ad ccbd
000003c0: b34e e13d 871d 743e 7b68 bf3e 6c34 3ebe
000003d0: 208c 093f 7e73 c3bb 50a2 2e3e 2c1b ad3e
000003e0: 7971 bb3e 9cf4 d23e 0a83 db3e 7150 bcbe
000003f0: 5048 e7be 21ee 44be 68f6 b73e 80f7 d73d
-0.111312225 0.03431229 0.8718031 0.7262054 0.10778123 0.6898012 1.0267208 0.5413103
-0.073140144 0.6629904 -0.013562169 -0.14641117 0.5803355 -0.8500324 0.45671785 0.16135779
-0.19330572 0.18970507 0.7601079 -0.22759204 -0.6228926 0.5831151 -0.5855584 0.11504574
0.017007502 0.19940911 -0.27530396 -0.34642324 -0.19662364 0.3552591 -0.5140731 0.5908879
-0.12701079 -0.23916568 -0.07186882 0.08909945 0.40289673 -0.1324387 0.5122432 0.016772948
-0.028818302 -0.32073838 0.19517611 0.1468621 0.30358532 -0.4692205 -0.15384747 0.15422237
-0.0435899 0.55023134 0.533948 -0.20888408 -0.6545744 0.112703726 0.11808258 0.09186821
0.34735203 0.2094499 0.04381676 -0.4773614 0.21098745 0.43141225 -0.16531704 -0.16543826
-0.29935232 0.17514357 0.49406445 -0.735017 0.664256 0.016446594 0.34862736 -0.47840965
0.23610917 0.40945986 0.26783398 -0.8941992 0.31371891 -0.5506235 0.23954137 0.6959241
-0.5887453 -0.074250944 -0.25146136 -0.07278864 -0.36283267 0.02857556 -0.20385121 0.080612965
0.5980434 -0.4981202 -0.62494284 -0.40068248 0.2955005 0.30454484 0.5312482 0.52897793
0.63021463 0.84487736 -0.39663693 0.49988952 0.08532848 0.30110934 0.875702 0.11445548
0.034651875 0.7699365 0.8756648 -0.681367 -0.051973186 0.93109375 -1.2413218 -0.118635744
0.47769153 0.3726622 -0.13748655 -1.2953527 0.36858028 0.7345103 -1.0236676 0.9888616
0.0973357 -0.64780974 -0.33667836 -0.043620273 0.20106244 0.4589791 -0.36429992 -0.21820442
-0.21347626 0.32591066 0.46334335 0.50718534 0.081681244 0.20049152 0.26453272 0.24420142
0.13972263 0.22152372 -0.48125896 -0.13109685 -0.18022251 0.09163693 0.5462879 0.120284006
0.30038816 0.17725831 -0.06380668 0.4393657 0.036822356 -0.02891452 0.05494509 -0.14489985
-0.3265001 0.04469068 -0.034592133 0.2989485 -0.051499486 -0.17900144 0.012399455 0.2220776
-0.33329892 -0.75723475 0.032279465 -0.49684864 0.45908624 -0.76614916 0.405125 -0.054391846
-0.9548059 -0.33946708 0.8237165 0.57726955 0.10053911 -0.47095162 1.0438966 0.5068434
0.113434166 0.36843917 0.57670045 -0.16394469 0.0010015878 -0.7782658 0.768747 -0.048751257
0.2945033 -0.31697258 0.14658704 0.5514627 0.62753123 0.14553414 0.52009445 0.4234485
-0.10834628 0.22374997 0.017331608 0.47903213 -0.15421407 -0.066843785 -0.1697249 0.033448577
0.2599708 -0.5735052 0.8198292 0.5281746 0.080084525 -0.55918926 1.1077355 0.041554216
-0.4198528 -0.32779962 -0.5773596 -0.15641041 -0.32054797 -0.11064755 -0.62419975 -0.11422291
-0.35903308 -0.5804695 0.43482202 0.2717657 -0.33732548 0.12514004 0.4840199 -0.5684204
0.25133476 -0.65538496 0.44654852 0.49279964 -0.014933115 0.4254903 -0.12134102 0.19426948
-0.19835684 0.3238882 -0.063633606 0.048613794 0.40007657 -0.023389557 -0.31731153 -0.09994068
0.11001339 0.23839389 0.373844 -0.18574685 0.5372944 -0.0059646955 0.17054105 0.33809793
0.3661001 0.41202247 0.42873412 -0.36780122 -0.45172358 -0.19231464 0.3593018 0.10545254

depthwise_1 f4 [1, 3, 3, 16]
00000000: ecde 83be 7a3a f23c 8969 cebb 0e5f 313d
00000010: bfee 483e cb0a 1c3d 29aa d93e 5fe2 863e
00000020: 9c77 643e 32c5 5bbb 7c2a 6a3d 9e4e 843e
00000030: e30b 893d 5d95 ee3c 3145 afbd f320 1ebd
00000040: 3ad4 e1bd fcef 043e ac73 e6bd 1add 15be
00000050: 8ca1 c33e b387 8a3d e296 49bd 89b8 4f3e
00000060: 70ce 00bf 3dce af3e a9b3 c8bd 025f bc3d
00000070: cf46 acbe 3a4d d6be d373 8dbe 7628 f3be
00000080: 49fa b73c 2998 bd3e 745d a7bc ea3e 4b3e
00000090: ec90 3b3e 3f78 12be efb2 2cbe 10cb f1ba
000000a0: 5256 44be 58c7 0fbe 089f e7be d98d abbe
000000b0: bdad 89bd 3d7d 593d e2c4 863e 5687 9bbe
000000c0: a004 6abe a25b 113e 723c 383e ccfe ff3d
000000d0: 980a 763e 1c3e 79bd 7e01 e13d aec9 6b3e
000000e0: 1157 a5bd d540 c9bd d015 09bd eaef 733d
000000f0: 3da8 95bd 0ab9 a23d c5c4 a53d 60b7 843e
00000100: 0ffa 0d3e 26a6 a23e d179 fa3e ca05 61bf
00000110: 0ecc c7bd 4e85 32bf 59a2 85be 8bab 153f
00000120: 136d 40be ce3d 493e 68f6 74be 8cc7 c5bd
00000130: ff0b 933d 8bb2 b5bb 5bfb 303d 42af 94bd
00000140: c36c 113e 0ecb 8a3e 4794 f7bd d554 92be
00000150: 499c dc3d 89ac 49bd 82f3 96bd 0d8b a63e
00000160: 53e9 95be aeb2 733e a04d a8bc 86f7 843e
00000170: 6e3a 213d 47ac 8abe e7ad 86bd 3905 83bb
00000180: 1dfe 923d 0ac8 073e 18c7 74bd d4c4 70bd
00000190: d673 2a3e c91c 693e 1bf3 32be 4fa3 2e3e
000001a0: 91ec 7c3d 9bb1 df3d 2a30 ebbd cf3b c03d
000001b0: 0671 a93c a05a 87bc ef4b dd3e ded9 973e
000001c0: 6663 bfbe db18 c63e f655 5dbe 3530 53bd
000001d0: b140 fabd ddd5 313e 6b12 5fbe b85f 9d3e
000001e0: 7da0 7dbe 1997 a43e d9f8 ec3d c838 1bbe
000001f0: cead b4be 1e76 7c3e 999e 9dbe 2f3c bf3d
00000200: 9eaf 94bc c5ef c83d e2dd 1a3e cddd d13e
00000210: ef8d 123e b332 8e3c d1df 793e 4ed0 8a3e
00000220: c40b 3fbe e82a 8e3e f83c 91be 64e6 913e
00000230: 3c80 d8be 033c 99be 4d69 393d 8ea7 74be
-0.25756013 0.0295689 -0.006299202 0.04330354 0.19622324 0.03809623 0.42512634 0.26344582
0.22311252 -0.0033534286 0.057169423 0.2584123 0.0669172 0.029123956 -0.08558119 -0.03860564
-0.11026807 0.12982172 -0.112525314 -0.14635125 0.38209188 0.06764164 -0.04921616 0.20285238
-0.50315 0.34337035 -0.097998925 0.09197809 -0.33647773 -0.41855794 -0.2762743 -0.47491807
0.022458212 0.3703015 -0.020430304 0.19848219 0.18317002 -0.14303683 -0.16865133 -0.0018447358
-0.19173554 -0.14040887 -0.4523852 -0.3350666 -0.06722591 0.053097952 0.26322085 -0.3037669
-0.22853327 0.14195111 0.17991808 0.124997705 0.24027479 -0.060850248 0.10986613 0.23026153
-0.08073247 -0.09826819 -0.033468068 0.05955497 -0.073074795 0.0794545 0.080941714 0.25921154
0.13864921 0.31767386 0.48921064 -0.8789946 -0.09755717 -0.69734657 -0.26100424 0.5846488
-0.18791609 0.19652483 -0.23922122 -0.09657201 0.071800224 -0.0055449656 0.04320846 -0.0725999
0.14201646 0.27108043 -0.120888285 -0.28580347 0.107719965 -0.049236808 -0.07370664 0.32527962
-0.29279575 0.2379863 -0.020544827 0.25970095 0.039362364 -0.27084562 -0.06576138 -0.0039984253
0.071773745 0.13259903 -0.059760183 -0.05878146 0.1664575 0.22764887 -0.1747555 0.17054485
0.061749045 0.109225474 -0.11483796 0.093864076 0.020683777 -0.016522706 0.43221995 0.29658407
-0.37380522 0.38690838 -0.21614823 -0.051559646 -0.1221937 0.17366739 -0.2178437 0.3073709
-0.24768253 0.32146528 0.115709014 -0.15158379 -0.35288852 0.24654433 -0.30785063 0.09337651
-0.018150147 0.098113574 0.15123704 0.40989533 0.14311956 0.01735816 0.24401785 0.2711205
-0.18656832 0.2776711 -0.28366828 0.28496087 -0.42285335 -0.29928598 0.04526644 -0.23892042

convolution_3 f4 [16, 1, 1, 16]
00000000: 8f67 37bf 5d41 06be 5a06 683e d633 ddbe
00000010: 461d 863f a316 cdbe 96ec 583e 0edb 23bc
00000020: 63e6 52bf d1f7 553e 804d 9b3f b6be 053f
00000030: 9f61 153e 50db c93d 5511 66be 6cc0 813f
00000040: 3104 89be 1612 763e fa25 8cbe 240e 143e
00000050: ccfa 54bf 547f fc3e 63f6 e6bd debd 7dbf
00000060: 27a0 c7bd 4659 5b3e 4101 2c3f 0c7d cc3d
00000070: 7142 7d3d afcf f7be 2854 333e 49f7 4bbe
00000080: 4938 283f 8e50 25bf 257d 25bf a276 343f
00000090: e211 c03d 627f 07be fe24 a3be 43c3 9f3d
000000a0: b0df ff3e a06f 87bf e7f7 463e f03a 71be
000000b0: 4e75 4ebe 9e9f 5e3f 5fee a03e 08d8 df3e
000000c0: b50d fe3d ffcb bd3e fcc7 f03c 7c84 a3bf
000000d0: 276f 08bf 27fe bf3e 6f29 453f 8208 de3e
000000e0: 2b65 2bbe dfa8 6b3f 2ae5 31bf 6f13 6cbd
000000f0: c129 e5be d2c1 733f 5cd4 5ebe d6fe a73e
00000100: 128e 8cbe f106 9f3e 47ed 563e 55f6 22bf
00000110: bfa4 ddbe d5c4 f33d 552d 3a3f b323 f6be
00000120: 95ec d93f 7732 56bf 4eec 0abe 596e 2ebe
00000130: ca1e efbe 6b3c 093f 1060 94bf 0f88 f83e
00000140: f918 09bf ecd1 acbf 67a0 3cbf 8615 823f
00000150: 94c3 173f 2414 a8bf 09f7 86bf fc05 933f
00000160: 2ccf ddbe c419 303d 8c21 bb3e 56b0 513f
00000170: 36ce 173f 9fce e4be 7775 853f 29b1 053f
00000180: c423 eeb9 cdd2 14bd 9774 1bbf 83f7 ab3f
00000190: 6ebb 813f a627 673e 2b34 263d 4a2e 5cbe
000001a0: 6517 2cbe 26ab 0b3f 1af3 e03f bc43 1cbf
000001b0: 757e e23e 554d 3ebf 967a 56bd 8df8 60bf
000001c0: de3c a2be e6ba c93f d791 65bd 7305 843f
000001d0: f5a0 72bf c010 aabf 47ed 57bf 6310 bfbe
000001e0: a423 833f 3b2b 06bf 87f2 0d3f c5ae 4dbe
000001f0: 1aae 06bf e9eb 1c3d 5291 c3bf 0501 1bc0
00000200: 7551 ac3e 5aac 8dbe da4c 6fbe 2078 40bf
00000210: 1aa8 be3c 5a46 03be 8ae2 a53e ce21 29bf
00000220: 7804 babd 2252 353f b3eb 08bf aeb9 7ebf
00000230: c415 423f cd88 973f 4b8b d2bc 4b5b a23f
00000240: a6c9 f53f 61bb e8bc c485 703f d632 5f3f
00000250: 8fc7 02be 66a2 e6be 756f d7bd 25de 0e3e
00000260: 10ea c8bf 1a61 133e 4337 8c3f a1ae c0be
00000270: 2758 293d e1cd 39bf 90d9 3c3f b57f 153f
00000280: fa8a 7ebf a375 95bf e4e5 403f c6f5 c53e
00000290: 8abb 75bf f0ba db3e 4f18 10be a413 283f
000002a0: 7582 9f3f 21e2 1e3d 57e7 ab3d d0ee dfbe
000002b0: c5c2 d03e fb73 44be cf11 8a3f c12b 213e
000002c0: fe09 e5be 492b aabe c240 fbbe 3429 d23e
000002d0: 6203 933e 52b7 a53e 2014 47bf 688d 5cbd
000002e0: af13 26bf 6818 a4bc 76f0 4e3f 90be ca3e
000002f0: 0428 3d3f b6bd 813e e9b2 f9be daec 8c3e
00000300: 087f 323f cd5b 573f 0fe8 21bf ec31 d33f
00000310: 429a 88bd 1cac bdbf 749e 303d 2fa2 73bf
00000320: 3297 dcbe 85a2 ec3e ff6e 56be 41ca 6f3f
00000330: 5bd1 8e3f f8e0 f73d b8b8 583f 09ac 0bbf
00000340: a7d7 c53e 8d3a 363f f05a ba3f 5abc 693e
00000350: 8ba7 f9bd 2110 38be ab44 c73e ed8a 973f
00000360: a42c 3f3f d7e5 91bd 9d58 053f b499 7f3e
00000370: 2572 65bf eefd 733e b6bf 8e3e de99 21be
00000380: a1e5 98be 0a53 403f d93b 90be 370b c23f
00000390: 14bc 20bf 57e3 963e b706 37bc a6a6 a4bf
000003a0: 1320 8b3e 764d c0bf daf4 e03d 9698 d1be
000003b0: 6d69 ccbe ce36 e13d a1bd e1bd c616 33bc
000003c0: 13c8 25bf 7740 0f3f 639d 4dbf 80a4 98bf
000003d0: 9d66 1a3f 8f97 4cbf 4655 cf3e 93bb 4e3f
000003e0: 005e 223f cc71 46bf 3961 b3be 2062 98bd
000003f0: 8cd8 a2be ee8f 633f a7f6 803e f270 c4be
-0.7164239 -0.13110872 0.22658673 -0.4320361 1.0477684 -0.40056333 0.21184 -0.010000957
-0.8238279 0.20895316 1.2133026 0.52244127 0.1458802 0.09856284 -0.22467549 1.0136847
-0.2676101 0.24030337 -0.27372724 0.14458519 -0.83195186 0.49315894 -0.11277463 -0.9911784
-0.097473435 0.21420774 0.67189413 0.09984788 0.06183094 -0.48400638 0.17512572 -0.1991855
0.65710884 -0.6457604 -0.6464408 0.7049352 0.09378411 -0.13232186 -0.3186416 0.07800915
0.49975348 -1.058094 0.19430505 -0.23557639 -0.20161936 0.86962306 0.31431863 0.43719506
0.12404958 0.370697 0.029392235 -1.2774806 -0.53294605 0.3749859 0.7701635 0.43365866
-0.16737811 0.9205455 -0.694903 -0.05763572 -0.44758418 0.9521762 -0.21760696 0.32811612
-0.2745214 0.31059983 0.20988952 -0.6365712 -0.43289754 0.11902777 0.7272542 -0.4807411
1.7025324 -0.83670753 -0.13566706 -0.17034282 -0.46703178 0.53607816 -1.1591816 0.48541304
-0.5355373 -1.3501563 -0.73682255 1.0162818 0.59282804 -1.3131146 -1.0544139 1.1486201
-0.43322122 0.042993322 0.36549032 0.8190969 0.5929903 -0.4468889 1.0426472 0.5222345
-0.00045421545 -0.036333848 -0.60724777 1.343491 1.0135324 0.22573718 0.040577095 -0.21502033
-0.168058 0.54558027 1.7574189 -0.61040854 0.44237104 -0.7433675 -0.052363 -0.8787926
-0.31687063 1.5760162 -0.056047287 1.0314163 -0.9477685 -1.3286362 -0.8434643 -0.3731719
1.0245252 -0.52409714 0.5544819 -0.200862 -0.5260941 0.03831092 -1.5278723 -2.4219372
0.33655897 -0.27670556 -0.2336916 -0.75183296 0.023273516 -0.12819806 0.32399398 -0.66067207
-0.090828836 0.7082845 -0.5348465 -0.99502075 0.7581446 1.1838623 -0.025701186 1.268411
1.9202163 -0.028409662 0.9395411 0.87186944 -0.12771438 -0.45045775 -0.105193056 0.13951929
-1.569643 0.1439251 1.0954365 -0.3763323 0.041343834 -0.7257977 0.73769474 0.5839799
-0.9943081 -1.1676525 0.75350785 0.38664073 -0.95989287 0.4291606 -0.14071773 0.6565497
1.2461687 0.038789872 0.08393734 -0.43736887 0.40773597 -0.19184868 1.0786685 0.15739347
-0.44734186 -0.3323615 -0.49072844 0.4104706 0.28713518 0.32366425 -0.77765083 -0.053845793
-0.64873785 -0.020031169 0.80835664 0.39598513 0.73889184 0.2534005 -0.4876931 0.27524453
0.69725084 0.8412445 -0.6324472 1.649961 -0.06670047 -1.4818149 0.043119863 -0.9516935
-0.43084103 0.46217743 -0.20940779 0.9366799 1.115764 0.12103456 0.8465686 -0.5455938
0.38641092 0.7118309 1.4559002 0.22825757 -0.121901594 -0.17974903 0.38919577 1.1839272
0.7467749 -0.071239166 0.5208834 0.24960977 -0.89627296 0.23827335 0.2788064 -0.15781352
-0.29862693 0.7512671 -0.2817066 1.5159672 -0.62786984 0.29470322 -0.011171035 -1.2863357
0.27172908 -1.5023639 0.10984202 -0.40936726 -0.39924183 0.10996781 -0.11022497 -0.010930723
-0.64758414 0.5595774 -0.8031828 -1.1925201 0.60312825 -0.7991876 0.40494746 0.80754966
0.6342468 -0.7751739 -0.35035113 -0.07440591 -0.31805837 0.88891494 0.2518818 -0.3836742

depthwise_2 f4 [1, 3, 3, 16]
00000000: 42fe a03d d8dc 0abe 0dee 833d c0e3 6abe
00000010: 3ca7 9cbe 14e6 7ebe c872 76be f122 29be
00000020: 502e 0a3e f961 903e deb6 17bd ca54 b93d
00000030: 77c5 e13d 0777 03be 02c1 2a3d 8eda 79ba
00000040: 724b 63be eeab 96be 46b4 fd3d 1c80 5e3e
00000050: 1c1f c13d 050f 773e 2ed0 45be ef96 3dbe
00000060: aa96 c13d dd60 1b3e 3ce6 87be 8100 8b3e
00000070: 18cf 5bbe 0b6d 34be d870 fabd 8b8b e9bd
00000080: 8650 c0bd 4f08 f03e d7dd 3e3d a48b 48bc
00000090: 062a c8be 7b50 7ebe 2887 21bc 688a d63c
000000a0: c148 8dbe 6c02 83be a061 90bd 2c42 d73e
000000b0: 7d3a e33d 60e3 48be 0087 27be aec0 f8bc
000000c0: 65b0 7e3d 2c78 23bd 8d0d 9c3e dd98 3a3e
000000d0: 58e9 2f3d 4c80 9f3c f278 9abd 1517 e9bd
000000e0: 9f6f aebd 1598 423e 19e1 18be 4ecc e83e
000000f0: 7397 4fbe 793a 23be a686 50be 138d 26be
00000100: d90c 95be 070f 0ebf f51d 9c3e 3615 553e
00000110: f158 b33e 3e38 f93e 32c1 ecbe 8cf3 28be
00000120: 19f4 3cbd f6e3 7f3e 44fb 95bd c9f4 b53e
00000130: 2749 c7bc c46e c8bc 6fc3 0bbf 3860 02bd
00000140: 93f3 3e3e 4f9b 51be 39a9 2a3e fc03 3d3d
00000150: c063 933d 6999 af3e b4c6 a3be 961e 9bbd
00000160: 1dce 9c3e f7cf bcbe 3d34 e93d a1fa efbb
00000170: 1a07 b93e f6cd 1abb fa38 34be 2d10 c9be
00000180: 7098 b8bd 4d64 563e 5288 a03e d7fb 903d
00000190: e730 52be e6bf 22bd ccc9 4dbe bc44 0a3e
000001a0: de22 7ebe 3825 5c3e 43d8 ca3c 8349 373d
000001b0: b3ba a4bd ac7b 1dbe a348 34bd 78e1 283e
000001c0: 01cb e7be 6350 3ebd 959b bd3d 0253 d23c
000001d0: 2e95 afbe 5cd7 5dbb 080c 493d 2e48 67bc
000001e0: a597 91be 37a4 22bd 437b 9d3e 4b9c 8c3e
000001f0: e709 9dbe fc50 fb3d 8977 c8bc 238d 0fbe
00000200: 1850 bfbc 9e93 3b3b d598 5f3c b423 5c3b
00000210: 2da0 52be d396 193e b9b1 83bb 5322 39be
00000220: 01c8 393e 8009 95be e1c3 f53d ab35 733e
00000230: 60d0 363e 942f fdbd c161 eabd f7be 5abe
0.07860996 -0.13560808 0.06441889 -0.22938442 -0.3059634 -0.24892455 -0.24067223 -0.16517235
0.1349423 0.28199747 -0.03703963 0.09049375 0.110239916 -0.12838374 0.041687973 -0.00095311634
-0.22196749 -0.29428047 0.123879 0.21728557 0.09429762 0.24126823 -0.19317695 -0.18514608
0.09452565 0.15173669 -0.26542842 0.27148822 -0.21465719 -0.17619722 -0.122285545 -0.11403569
-0.093903586 0.4688134 0.04659828 -0.012240324 -0.3909456 -0.24835388 -0.009858884 0.026189044
-0.2759457 -0.25587785 -0.070498705 0.42042673 0.1109514 -0.19617987 -0.16360092 -0.030365314
0.06217994 -0.039909527 0.30479088 0.18222375 0.042947143 0.019470356 -0.075426 -0.11381356
-0.08517384 0.19003327 -0.14929618 0.45468372 -0.20272617 -0.15940274 -0.20363864 -0.16264753
-0.29111364 -0.5549168 0.30491605 0.20808873 0.35028794 0.48675722 -0.46241146 -0.16499156
-0.046131227 0.24989304 -0.07323316 0.3553832 -0.024326874 -0.02446688 -0.54595083 -0.031830043
0.18647604 -0.20469402 0.16666116 0.046146378 0.0719676 0.3429673 -0.31987536 -0.07574193
0.30626002 -0.36877415 0.11386917 -0.0073235785 0.3613823 -0.0023621297 -0.1759986 -0.39270154
-0.0901345 0.20936699 0.31354004 0.07079285 -0.20526467 -0.03973379 -0.2009651 0.13502783
-0.24817988 0.21498573 0.024761325 0.04474784 -0.080434225 -0.15379208 -0.044014584 0.1649226
-0.45272067 -0.04646338 0.092581905 0.025674347 -0.34293503 -0.0033850288 0.04908374 -0.01411633
-0.28436008 -0.03970739 0.30758104 0.27462992 -0.30671617 0.12271306 -0.024471061 -0.14018683
-0.023353621 0.0028621922 0.013647278 0.0033590617 -0.20568915 0.14998941 -0.004018989 -0.180795
0.18142702 -0.2910881 0.120002516 0.23750941 0.17852926 -0.123625904 -0.11444426 -0.2136191

convolution_4 f4 [16, 1, 1, 16]
00000000: 656b e5bf d3f9 3240 d892 0fbf 59fe 40bf
00000010: 4777 33c0 b49b 3840 d6a7 2b3f 18f1 9abf
00000020: a05d f83f 654a 0f3f b2cb f2bf 3c10 0b40
00000030: 0a33 13bf de77 8ebe 5da9 0740 0998 1e40
00000040: 2242 863f f849 f3be 46a4 b8be e9d3 b0bf
00000050: 3894 81bf beae 0a3f 69c0 8c3f 4b18 1fbf
00000060: 749b 5dbe 8d3d 5f3f a055 1abf c044 8a3f
00000070: dc66 e8be c562 0fbf b900 873f 31e1 923e
00000080: 229d e83f 6ace 85c0 ab1b e340 9a88 7940
00000090: 8ef0 0cc0 d1b9 eabf da72 cabe 0a62 a9c0
000000a0: 4c16 4bc0 d809 5c3f dd67 91c0 f2a4 e0c0
000000b0: 79d1 1240 7677 dc40 e980 5ac0 94d6 11c0
000000c0: 32f4 953d dda0 42be 5d7d fdbe e8f6 03bf
000000d0: 92d0 863f db4f 9c3f c430 74bf fca4 56bd
000000e0: 3e35 fe3d e62a c5bf 3d73 f33f 5bb8 083f
000000f0: ed22 8abe 9c3e 79bf 1f57 1d3f 32cb 8f3f
00000100: df00 15c0 e815 5440 45ee b0be 76b0 8abd
00000110: 1cf8 4bc0 98a1 3e40 65ae a13f 7731 ccbf
00000120: 6cbc 0540 fbe3 2e3f c856 40c0 610f 4a40
00000130: f7e3 edbe 9c6d 603f 546d 1f40 6437 f03f
00000140: cdfb 44c0 6825 8040 e60b bbbf 5a2c e8bf
00000150: 93c0 15c0 b057 3e40 c5bc 20c0 6971 53c0
00000160: aa79 3240 c0ce b9bf 32a3 d0bf 2ab3 2540
00000170: 6b2d 1bc0 e261 e93f 4b9a 8440 d52c bf3f
00000180: dba6 ce3d e316 133f 00ae ca3e 2213 a33e
00000190: 69e1 783f 1c55 1b3f f2bc 3a3f eef4 b2bc
000001a0: ac4d 90be 0094 17bf 0d48 c2bc c09c afbc
000001b0: 61b8 dd3d ca63 14bf 9e6c 1ebe 3e5d 35bf
000001c0: 8f9e 42c0 4c88 8040 5e1e 91bf 6da9 1ec0
000001d0: c38e 01c0 c98f 4840 4794 3dc0 3ea6 74c0
000001e0: 6356 2440 084a ecbf cc80 53bf 74fb 2940
000001f0: 308b 28c0 0e8d 943f 9436 8240 0e9b e93f
00000200: 2c5f 0f3e 739b 713e b71d 413e ae76 42be
00000210: 2c25 b63e d298 113f 1faf 6b3f c46b 0e3f
00000220: bcc3 543f 48ad 3e3f fa68 30bf 846d 4e3f
00000230: 91ae 493f e8eb 93be 7231 e83e 5d7b 66bf
00000240: 9f87 353f 3701 a1be 8c2c 80bf 0009 d33e
00000250: ac5a 2e3e 770a b7bf 6419 8b3e e2d7 9b3e
00000260: 8689 803e 823e 8a3e f18d 84bd f4fd c13e
00000270: 8615 3d3f 4d43 1ebe 88a7 93bf 84a8 afbe
00000280: fba2 96be 6695 14bf 663a a23e f5ca 5e3f
00000290: 85f1 8e3e 8ead 463f 1d78 123f 9d2c 913e
000002a0: 9925 1c3e ec02 d0be 0602 efbe 382f 253f
000002b0: a3c6 41be a9dd b9be 915e 8bbe b9fa 66bf
000002c0: 0ad2 0cbf e0d7 0c3f d1dd a1be 7bf8 4e3e
000002d0: caaf c73e 891e 9c3f 0cb4 5fbf b398 2fbe
000002e0: e602 0f3f 5071 abbf fd82 8c3e 083c 2cbe
000002f0: 616e 0c3f 409f 7b3f aabf 653f 25f2 fcbd
00000300: 3d7b 33c0 2089 3040 4dd7 76bf 0c4c 04bf
00000310: 6bd7 46bf dba2 c13f 8123 babf 4b76 2ac0
00000320: 9e6b 8f3f dfbc ccbf e465 87bf 2370 2c40
00000330: 42d2 b3bf 44bc e13f 9e7c 4d40 6993 233f
00000340: ee5f 07be 3b7e 2f3f a32d 913f 13bb 333d
00000350: 8aae 553f 4d19 6dbe c8cd febd 60e2 a13c
00000360: aeef 0b3f ac6d f8be 3465 e43e 5e4d dabe
00000370: a3d1 893f 3031 eabe 24b3 533f 365f 8ebf
00000380: 9d42 043f 9c1e 20be ae00 bfbd 9e47 333f
00000390: 19c3 09c0 b60b 363f 31b3 0640 bdc7 363f
000003a0: 09c2 3c3f 81ee a43f 81d8 13c0 0532 2740
000003b0: d790 793f faed 563f 44e9 dc3f fe31 cf3c
000003c0: 6b59 803d 1a57 d0bf 365a 093e 0fcf 1e3f
000003d0: f945 ea3e 503c 18bf d5bc 4c3e a33e a3bf
000003e0: 2d4c 77bf 47c5 683d 57b5 6d3e dde7 163e
000003f0: 5d94 4c3f 35c2 5bbf c008 6bbe 18af c83e
-1.7923399 2.796498 -0.5608344 -0.75388104 -2.804155 2.8845034 0.6705297 -1.2104826
1.9403572 0.5597289 -1.8968413 2.1728659 -0.57499754 -0.27825826 2.119712 2.4780295
1.0488932 -0.4751737 -0.3606283 -1.381467 -1.0123358 0.54172885 1.0996219 -0.62146443
-0.21641332 0.87203294 -0.60286903 1.0802231 -0.45390975 -0.56010085 1.0547096 0.28687432
1.8172953 -4.181447 7.0971274 3.8989625 -2.2021823 -1.8337957 -0.3954075 -5.2932177
-3.173236 0.8595252 -4.5439286 -7.020135 2.2940352 6.8895826 -3.414118 -2.2787218
0.07321967 -0.19006677 -0.49509707 -0.51548624 1.0532401 1.221187 -0.9538691 -0.052403435
0.12412499 -1.5403717 1.9019543 0.53406304 -0.2697977 -0.9736116 0.6146106 1.1233885
-2.3281782 3.313837 -0.34556785 -0.067719385 -3.1870184 2.978613 1.2631346 -1.5952595
2.0896254 0.6831662 -3.0052967 3.1571887 -0.46462986 0.8766725 2.4910479 1.8766904
-3.0778687 4.004566 -1.4613006 -1.8138535 -2.3398788 2.974102 -2.5115216 -3.303797
2.7886758 -1.451622 -1.6299803 2.5890603 -2.424647 1.8232996 4.1438346 1.4935557
0.10090419 0.574568 0.39585876 0.31850535 0.9721895 0.6067674 0.7294456 -0.021845307
-0.2818426 -0.59210205 -0.023715997 -0.021437049 0.10826183 -0.57964766 -0.15471122 -0.708454
-3.0409276 4.016638 -1.1337392 -2.479091 -2.0243385 3.133776 -2.9621751 -3.8226466
2.5677726 -1.8460093 -0.82618403 2.6559725 -2.6334953 1.1605546 4.0691624 1.8250444
0.14001149 0.23594455 0.18858992 -0.18990585 0.35575235 0.5687381 0.9206409 0.5563319
0.83111167 0.74483156 -0.6891018 0.8063586 0.7878199 -0.2889092 0.45350224 -0.9003199
0.70910066 -0.3144624 -1.0013595 0.41217804 0.17026776 -1.4300069 0.2716781 0.30438143
0.25104922 0.27000815 -0.06472386 0.37889063 0.7386097 -0.1545536 -1.1535501 -0.34308255
-0.2942122 -0.58040464 0.3168518 0.8702844 0.2791864 0.77608573 0.5721453 0.2835435
0.15248717 -0.4062723 -0.4668123 0.64525175 -0.1892343 -0.36301926 -0.27220586 -0.9022632
-0.55007994 0.550169 -0.31614545 0.20211975 0.39001304 1.2196819 -0.87384105 -0.17148094
0.558638 -1.3393955 0.27443686 -0.16819775 0.54855925 0.9828987 0.8974558 -0.12350873
-2.8043969 2.7583694 -0.9642227 -0.5167854 -0.7767245 1.5127825 -1.4542085 -2.66347
1.1204717 -1.5995139 -1.057797 2.6943443 -1.404854 1.7635579 3.210731 0.63896805
-0.13220188 0.6855199 1.1342052 0.04387958 0.8346945 -0.23154183 -0.124415934 0.019761264
0.546626 -0.48521173 0.44608462 -0.4263715 1.0767101 -0.45740652 0.8269522 -1.1122806
0.51664144 -0.15636677 -0.093263015 0.70031154 -2.1525328 0.7111162 2.104687 0.71398526
0.73733574 1.2885286 -2.3100893 2.612428 0.97486633 0.83956873 1.7258687 0.025292393
0.06267055 -1.6276581 0.13413319 0.62034696 0.4575651 -0.5946703 0.19993909 -1.275349
-0.9660061 0.056828763 0.23213707 0.14736886 0.79913884 -0.8584321 -0.22952557 0.39196086

Add_2;convolution_4;depthwise;Const_10 f4 [16]
00000000: 260c 503e dab0 a53e 23b1 863d ccd5 81be
00000010: e399 823e 6b9a 843e 3675 8d3e 0ef4 313e
00000020: c19b 05be 59c3 6dbe e3a1 803d 9375 09bd
00000030: 5417 083e 7643 c43d e0d0 0d3e 809f cdbd
0.20317134 0.3236149 0.06576755 -0.25358427 0.2550803 0.25899062 0.27628487 0.17378256
-0.13047697 -0.2321905 0.062808774 -0.033559393 0.13290149 0.0958318 0.1384921 -0.10040188

Add_4;convolution_4;depthwise_1;Const_14 f4 [16]
00000000: deb0 f83d 77db 61be b956 163d e651 233e
00000010: 5c5b a7be 3ecf 903d d26c 8abe 0873 56be
00000020: 1802 95be a885 2fbe c6e5 273e 7750 84bd
00000030: 7ef2 953e 2f29 863e d70a 84be 5f34 17bd
0.1214311 -0.22056375 0.0367038 0.1594921 -0.3268689 0.07070778 -0.27036148 -0.20942318
-0.2910316 -0.1714083 0.16396245 -0.0646066 0.2928657 0.26203296 -0.2578952 -0.03691518

Add_6;convolution_4;depthwise_2;Const_18 f4 [16]
00000000: be20 a7be 6b2a 423e ceed 763e b422 643d
00000010: d4e9 363d 405c ce3d 3ef0 5b3e b8ca 3f3e
00000020: a62a 1dbe d3d7 8cbe de04 723e 533e 21be
00000030: b6c0 ea3d 6c0b 98be 1e6a 94be 5bee f83d
-0.32642168 0.18961494 0.24114153 0.055697158 0.04465659 0.10076189 0.21478364 0.18729675
-0.153483 -0.2750841 0.23634669 -0.15746431 0.11462538 -0.29696214 -0.2898721 0.12154838
